HIMAX_Yolo_Fastest_Person_Detection_Example/himax_dataset_yolo.tflite (tflite, 513016 bytes, 84 tensors)

model/conv2d/Conv2D i1 [8, 3, 3, 1]
000000 f4 e8 26 ec c3 74 02 cf 7f d3 2a 02 81 5c 14 c9
       -12 -24 38 -20 -61 116 2 -49 127 -45 42 2 -127 92 20 -55
000010 3e 08 fc e1 02 11 81 fc 17 81 e2 f9 30 ff fb 78
       62 8 -4 -31 2 17 -127 -4 23 -127 -30 -7 48 -1 -5 120
000020 fc e0 7f 28 f0 81 ed ed 93 db fe 8a 01 07 d1 06
       -4 -32 127 40 -16 -127 -19 -19 -109 -37 -2 -118 1 7 -47 6
000030 f9 81 f3 f9 12 fa fd 24 d9 01 54 81 02 34 8b 97
       -7 -127 -13 -7 18 -6 -3 36 -39 1 84 -127 2 52 -117 -105
000040 2b 00 81 34 0b f7 04 09
       43 0 -127 52 11 -9 4 9

model/conv2d_1/Conv2D i1 [8, 1, 1, 8]
000000 f7 f6 7b 8e 7f 66 34 0e 51 e7 08 6a 1b fb e5 f2
       -9 -10 123 -114 127 102 52 14 81 -25 8 106 27 -5 -27 -14
000010 bf fe d8 4a 0f 03 7f 06 ff 04 81 6d 91 ad e7 df
       -65 -2 -40 74 15 3 127 6 -1 4 -127 109 -111 -83 -25 -33
000020 45 8e 3c cc 0a 15 81 cc 23 9c b4 23 04 2a a3 aa
       69 -114 60 -52 10 21 -127 -52 35 -100 -76 35 4 42 -93 -86
000030 48 0f 4f b8 1b fd 81 fb fb 8c 15 fe 37 ee 2c 81
       72 15 79 -72 27 -3 -127 -5 -5 -116 21 -2 55 -18 44 -127

model/batch_normalization_2/FusedBatchNormV3;model/depthwise_conv2d/depthwise;model/conv2d_16/Conv2D i1 [1, 3, 3, 8]
000000 d2 0c 05 42 06 d4 fa f6 f1 35 05 81 1f 81 10 1f
       -46 12 5 66 6 -44 -6 -10 -15 53 5 -127 31 -127 16 31
000010 01 0c 05 f8 fe 18 02 01 f4 2d 81 f6 de 0b 57 7b
       1 12 5 -8 -2 24 2 1 -12 45 -127 -10 -34 11 87 123
000020 7f 81 5a 67 81 70 81 81 f2 24 0a f7 ff 1e 06 f8
       127 -127 90 103 -127 112 -127 -127 -14 36 10 -9 -1 30 6 -8
000030 0e 10 0a c5 02 b3 fa 0b f3 f3 fe 2e 01 24 fd ec
       14 16 10 -59 2 -77 -6 11 -13 -13 -2 46 1 36 -3 -20
000040 fe 2d 0b 05 fd e4 ff fa
       -2 45 11 5 -3 -28 -1 -6

model/conv2d_2/Conv2D i1 [4, 1, 1, 8]
000000 39 00 a1 49 81 00 8f f2 7f 00 4a f6 c3 00 36 b8
       57 0 -95 73 -127 0 -113 -14 127 0 74 -10 -61 0 54 -72
000010 7f 00 e5 c2 1a 00 e6 30 dc 00 e3 b0 81 00 cd af
       127 0 -27 -62 26 0 -26 48 -36 0 -29 -80 -127 0 -51 -81

model/conv2d_3/Conv2D i1 [8, 1, 1, 4]
000000 25 81 44 fe 81 cb e5 12 43 54 6b 7f ed d0 81 22
       37 -127 68 -2 -127 -53 -27 18 67 84 107 127 -19 -48 -127 34
000010 7f 10 1b 51 ef 49 7f 49 4c 5d 81 17 f7 af 7f 07
       127 16 27 81 -17 73 127 73 76 93 -127 23 -9 -81 127 7

model/batch_normalization_5/FusedBatchNormV3;model/depthwise_conv2d_1/depthwise;model/conv2d_16/Conv2D i1 [1, 3, 3, 8]
000000 0e 34 45 7e 7f e8 e8 bd ee d1 9c e0 c9 33 ad 81
       14 52 69 126 127 -24 -24 -67 -18 -47 -100 -32 -55 51 -83 -127
000010 dc 03 31 cb 07 1c 4b db f1 f2 52 b4 70 fd ec b3
       -36 3 49 -53 7 28 75 -37 -15 -14 82 -76 112 -3 -20 -77
000020 b5 7f 84 91 d7 50 13 d0 81 db 7f bc f8 03 39 76
       -75 127 -124 -111 -41 80 19 -48 -127 -37 127 -68 -8 3 57 118
000030 05 d4 f1 b8 c0 2b 17 dc ea 40 e7 7f 06 81 6d 20
       5 -44 -15 -72 -64 43 23 -36 -22 64 -25 127 6 -127 109 32
000040 e9 34 e0 74 fe f0 81 92
       -23 52 -32 116 -2 -16 -127 -110

model/conv2d_4/Conv2D i1 [4, 1, 1, 8]
000000 aa 77 81 82 27 5b aa 06 e2 3a c1 a8 73 7f b3 43
       -86 119 -127 -126 39 91 -86 6 -30 58 -63 -88 115 127 -77 67
000010 81 0d fb d7 1f 2b 3b 6e dc e3 8f 30 7f c7 75 ea
       -127 13 -5 -41 31 43 59 110 -36 -29 -113 48 127 -57 117 -22

model/conv2d_5/Conv2D i1 [24, 1, 1, 4]
000000 01 7f c1 25 19 41 7f ea 7f 19 3d a1 81 25 fe 50
       1 127 -63 37 25 65 127 -22 127 25 61 -95 -127 37 -2 80
000010 48 7f 01 23 f7 7f f3 08 7f 2c 0f 4e 81 db a9 68
       72 127 1 35 -9 127 -13 8 127 44 15 78 -127 -37 -87 104
000020 08 34 7f ec 7f ed 32 6c da b3 81 16 54 7f aa 87
       8 52 127 -20 127 -19 50 108 -38 -77 -127 22 84 127 -86 -121
000030 09 33 7f ed 81 97 e3 82 58 58 7f 3e bd c9 63 7f
       9 51 127 -19 -127 -105 -29 -126 88 88 127 62 -67 -55 99 127
000040 f9 cf 81 13 90 7f b6 d6 cf f5 7f 40 5f 7f 74 33
       -7 -49 -127 19 -112 127 -74 -42 -49 -11 127 64 95 127 116 51
000050 15 3f 7f d3 a9 7f f7 bb ce 81 5b a9 ad 7f c6 fd
       21 63 127 -45 -87 127 -9 -69 -50 -127 91 -87 -83 127 -58 -3

model/batch_normalization_8/FusedBatchNormV3;model/depthwise_conv2d_2/depthwise;model/conv2d_36/Conv2D i1 [1, 3, 3, 24]
000000 0b 19 ff e5 00 02 ce 37 03 02 53 28 40 f9 bb 3f
       11 25 -1 -27 0 2 -50 55 3 2 83 40 64 -7 -69 63
000010 17 05 d0 02 64 03 16 db f8 3f 90 e3 46 2d b9 56
       23 5 -48 2 100 3 22 -37 -8 63 -112 -29 70 45 -71 86
000020 18 f4 5f 33 7f 5a 43 65 50 fb 8c ca 58 81 44 7f
       24 -12 95 51 127 90 67 101 80 -5 -116 -54 88 -127 68 127
000030 cd 1d 97 dd af d6 e1 cb 02 0a 2c ff 39 ad 17 3b
       -51 29 -105 -35 -81 -42 -31 -53 2 10 44 -1 57 -83 23 59
000040 54 3c bb 4b d1 7e 25 ea 09 35 e0 cb 05 fc ab ef
       84 60 -69 75 -47 126 37 -22 9 53 -32 -53 5 -4 -85 -17
000050 da 08 52 41 fe 0d 83 23 cb 17 3b f9 7f fe 31 f6
       -38 8 82 65 -2 13 -125 35 -53 23 59 -7 127 -2 49 -10
000060 12 7f dc 81 0f 9e 81 81 81 8a 7f 7f df 81 7f 7f
       18 127 -36 -127 15 -98 -127 -127 -127 -118 127 127 -33 -127 127 127
000070 81 2e f2 91 0b 70 7f 7c 81 5f 41 95 d5 7f c9 d9
       -127 46 -14 -111 11 112 127 124 -127 95 65 -107 -43 127 -55 -39
000080 92 6d 37 38 f8 77 0b 44 a1 7f ad 7f a4 9e 3c d3
       -110 109 55 56 -8 119 11 68 -95 127 -83 127 -92 -98 60 -45
000090 09 1c 17 d3 fa 01 d5 da 22 f5 14 14 c9 fc bb e2
       9 28 23 -45 -6 1 -43 -38 34 -11 20 20 -55 -4 -69 -30
0000a0 1a 10 72 e1 f3 ff 17 11 07 53 7f 9b ad 3b bd f9
       26 16 114 -31 -13 -1 23 17 7 83 127 -101 -83 59 -67 -7
0000b0 67 7f 2a 4e a3 28 50 0e 33 3c 7f bc c8 18 49 0e
       103 127 42 78 -93 40 80 14 51 60 127 -68 -56 24 73 14
0000c0 91 4b 50 ed 7f a9 ea 3f 70 83 16 40 c3 df 0c 22
       -111 75 80 -19 127 -87 -22 63 112 -125 22 64 -61 -33 12 34
0000d0 0c 4c 25 5b 86 e5 18 00
       12 76 37 91 -122 -27 24 0

model/conv2d_6/Conv2D i1 [8, 1, 1, 24]
000000 d9 13 39 e2 5c 7f ff 30 4b 71 f7 0d 33 7a f3 ec
       -39 19 57 -30 92 127 -1 48 75 113 -9 13 51 122 -13 -20
000010 43 e8 f6 e9 cd 6b 04 ee b0 e8 f4 b7 c1 d3 95 e9
       67 -24 -10 -23 -51 107 4 -18 -80 -24 -12 -73 -63 -45 -107 -23
000020 28 d0 14 68 18 d8 28 d3 3c 9c 05 c7 df e0 7f 34
       40 -48 20 104 24 -40 40 -45 60 -100 5 -57 -33 -32 127 52
000030 16 88 96 7b 09 0c c1 9a b2 05 1e 7f ae 08 1b 7f
       22 -120 -106 123 9 12 -63 -102 -78 5 30 127 -82 8 27 127
000040 d0 3d 34 28 d9 0f 4a 2f 0a aa 28 e8 07 0a f3 36
       -48 61 52 40 -39 15 74 47 10 -86 40 -24 7 10 -13 54
000050 3c 0c 52 18 46 06 09 74 4c f5 7f fc 3a 0f 21 f1
       60 12 82 24 70 6 9 116 76 -11 127 -4 58 15 33 -15
000060 48 f3 1a f8 d8 c9 cf 0f 7f d0 cb 1d 6e ca 48 b8
       72 -13 26 -8 -40 -55 -49 15 127 -48 -53 29 110 -54 72 -72
000070 7d 6a e3 6d e7 c5 1c 38 e4 81 06 02 fd 01 36 fd
       125 106 -29 109 -25 -59 28 56 -28 -127 6 2 -3 1 54 -3
000080 13 01 1d 16 16 04 ea ef 19 dc 05 eb e5 ff cf ea
       19 1 29 22 22 4 -22 -17 25 -36 5 -21 -27 -1 -49 -22
000090 2e 0d 51 a2 fd e6 28 34 a8 eb 1f 22 a6 ea 63 b4
       46 13 81 -94 -3 -26 40 52 -88 -21 31 34 -90 -22 99 -76
0000a0 81 43 10 79 24 e7 e0 11 d5 7f e3 4e 00 0a 7e d6
       -127 67 16 121 36 -25 -32 17 -43 127 -29 78 0 10 126 -42
0000b0 1c 09 b9 62 20 0e e5 63 35 d1 4f e2 c1 09 ad dc
       28 9 -71 98 32 14 -27 99 53 -47 79 -30 -63 9 -83 -36

model/conv2d_7/Conv2D i1 [32, 1, 1, 8]
000000 7f bb 8f 72 2e 50 ad 40 38 bf 81 ed 92 36 df f7
       127 -69 -113 114 46 80 -83 64 56 -65 -127 -19 -110 54 -33 -9
000010 58 02 0b bd 81 f6 19 03 f0 fe f8 ef fd 81 0f 27
       88 2 11 -67 -127 -10 25 3 -16 -2 -8 -17 -3 -127 15 39
000020 fe 16 f2 7f eb a9 10 1e 0b f1 cc 11 01 81 1e 45
       -2 22 -14 127 -21 -87 16 30 11 -15 -52 17 1 -127 30 69
000030 29 ba 0f 66 5f 7f 59 01 24 01 b1 5b 7f 37 a5 44
       41 -70 15 102 95 127 89 1 36 1 -79 91 127 55 -91 68
000040 03 20 58 1c 44 81 9c 92 24 2e 3f ff ec 19 d3 7f
       3 32 88 28 68 -127 -100 -110 36 46 63 -1 -20 25 -45 127
000050 51 10 c7 eb 44 82 34 7f 12 04 56 61 4f 51 bd 7f
       81 16 -57 -21 68 -126 52 127 18 4 86 97 79 81 -67 127
000060 81 07 23 a8 f6 d2 1c c8 f8 21 ef f0 fa 81 22 60
       -127 7 35 -88 -10 -46 28 -56 -8 33 -17 -16 -6 -127 34 96
000070 57 b6 3b 8e 7f e7 7e e5 1a e7 53 ef 53 28 65 81
       87 -74 59 -114 127 -25 126 -27 26 -25 83 -17 83 40 101 -127
000080 f4 81 24 24 22 9c 4a d2 00 7f ff 37 b2 ea 4d 21
       -12 -127 36 36 34 -100 74 -46 0 127 -1 55 -78 -22 77 33
000090 cf 8d ca 35 f0 ed 81 f2 04 f6 7f 50 ce cb c6 18
       -49 -115 -54 53 -16 -19 -127 -14 4 -10 127 80 -50 -53 -58 24
0000a0 2f 81 21 f8 7d 8c fd 42 1c 0d ff 3a 03 03 23 81
       47 -127 33 -8 125 -116 -3 66 28 13 -1 58 3 3 35 -127
0000b0 47 7f cf 04 db c7 e2 f4 81 1c e6 cf 14 29 ff 2b
       71 127 -49 4 -37 -57 -30 -12 -127 28 -26 -49 20 41 -1 43
0000c0 81 28 f3 c0 fa 05 09 f6 36 26 17 1f 03 81 04 a5
       -127 40 -13 -64 -6 5 9 -10 54 38 23 31 3 -127 4 -91
0000d0 34 18 2f 09 23 7f 07 d2 33 15 f6 7f 10 d7 2e 2c
       52 24 47 9 35 127 7 -46 51 21 -10 127 16 -41 46 44
0000e0 a9 10 c0 3f 96 79 81 fa b1 d8 81 a4 26 03 c9 21
       -87 16 -64 63 -106 121 -127 -6 -79 -40 -127 -92 38 3 -55 33
0000f0 10 9c 40 7f 31 58 03 87 ba f3 ea bc e4 7f dd e2
       16 -100 64 127 49 88 3 -121 -70 -13 -22 -68 -28 127 -35 -30

model/batch_normalization_11/FusedBatchNormV3;model/depthwise_conv2d_3/depthwise;model/depthwise_conv2d_5/depthwise i1 [1, 3, 3, 32]
000000 ea ea 03 09 f0 11 f9 ca 0f f3 c9 33 11 39 0a 24
       -22 -22 3 9 -16 17 -7 -54 15 -13 -55 51 17 57 10 36
000010 c5 df fa 11 44 53 1b 81 f5 e1 0f 3c fa ef da e0
       -59 -33 -6 17 68 83 27 -127 -11 -31 15 60 -6 -17 -38 -32
000020 35 49 e1 20 6d 3a 07 db e8 1f 73 f8 7f 8d e7 14
       53 73 -31 32 109 58 7 -37 -24 31 115 -8 127 -115 -25 20
000030 4a 33 59 c2 a6 a8 81 4d 2d 81 7f 1a cb 64 7e cf
       74 51 89 -62 -90 -88 -127 77 45 -127 127 26 -53 100 126 -49
000040 dc 17 06 0f 47 0c 14 e4 12 23 01 00 19 29 0d f2
       -36 23 6 15 71 12 20 -28 18 35 1 0 25 41 13 -14
000050 d9 e3 a6 89 0d ed 5b e1 04 d7 2f ca 04 d6 cd f9
       -39 -29 -90 -119 13 -19 91 -31 4 -41 47 -54 4 -42 -51 -7
000060 f8 dc 16 29 0c ce f8 fb 99 0b 81 3b 02 0e 7f 7f
       -8 -36 22 41 12 -50 -8 -5 -103 11 -127 59 2 14 127 127
000070 16 e7 fb ee 46 ee da 5b fd 32 ec 15 7f a7 8e 00
       22 -25 -5 -18 70 -18 -38 91 -3 50 -20 21 127 -89 -114 0
000080 7f 7f 81 6c e4 81 81 81 86 67 78 b9 10 fe 9b a8
       127 127 -127 108 -28 -127 -127 -127 -122 103 120 -71 16 -2 -101 -88
000090 6f 13 7e cd 81 b0 89 7d aa 62 af 11 83 7f 7f 7f
       111 19 126 -51 -127 -80 -119 125 -86 98 -81 17 -125 127 127 127
0000a0 ff 2c 16 1d ef e1 bc 00 81 31 c0 fe ee f3 de d5
       -1 44 22 29 -17 -31 -68 0 -127 49 -64 -2 -18 -13 -34 -43
0000b0 f9 df 81 7f 14 2f 68 63 f5 b9 f6 dd f5 0d bc fb
       -7 -33 -127 127 20 47 104 99 -11 -71 -10 -35 -11 13 -68 -5
0000c0 14 f7 12 cc 21 1f e5 dd 01 af ef db e4 b7 1b 19
       20 -9 18 -52 33 31 -27 -35 1 -81 -17 -37 -28 -73 27 25
0000d0 db ed 24 f0 3c c3 16 a3 14 07 f4 81 6a 02 d0 fb
       -37 -19 36 -16 60 -61 22 -93 20 7 -12 -127 106 2 -48 -5
0000e0 47 5f 6c 81 81 40 b9 b4 64 7f 0e 81 10 7f 10 bb
       71 95 108 -127 -127 64 -71 -76 100 127 14 -127 16 127 16 -69
0000f0 7f 7f 20 03 e8 7f a0 5a 81 22 ec e3 f9 a6 3a de
       127 127 32 3 -24 127 -96 90 -127 34 -20 -29 -7 -90 58 -34

model/conv2d_8/Conv2D i1 [8, 1, 1, 32]
000000 a5 e1 72 1a f3 20 db 65 1e fc e5 0b be 1e 2a f7
       -91 -31 114 26 -13 32 -37 101 30 -4 -27 11 -66 30 42 -9
000010 e4 bf dc 2b f4 1c cb d2 7f fc ef bc 1f d4 c3 d8
       -28 -65 -36 43 -12 28 -53 -46 127 -4 -17 -68 31 -44 -61 -40
000020 4b 30 d3 08 d3 21 03 c0 c4 1c 86 fd 7b d2 f5 59
       75 48 -45 8 -45 33 3 -64 -60 28 -122 -3 123 -46 -11 89
000030 3b 45 95 b1 e1 d6 8e 48 81 9f 51 da 4b 0d 38 8f
       59 69 -107 -79 -31 -42 -114 72 -127 -97 81 -38 75 13 56 -113
000040 3a 81 0b e7 e2 c0 38 4c d7 da 2e 9e 99 f5 e1 fc
       58 -127 11 -25 -30 -64 56 76 -41 -38 46 -98 -103 -11 -31 -4
000050 31 fe 25 cb 52 c3 24 db 32 ce eb 16 f3 f3 ed 96
       49 -2 37 -53 82 -61 36 -37 50 -50 -21 22 -13 -13 -19 -106
000060 81 cb 06 44 de 5f b4 a6 3a c2 12 f1 f2 18 00 fe
       -127 -53 6 68 -34 95 -76 -90 58 -62 18 -15 -14 24 0 -2
000070 ca df 07 27 d7 0d de 44 06 24 3a d6 e7 d6 00 c9
       -54 -33 7 39 -41 13 -34 68 6 36 58 -42 -25 -42 0 -55
000080 ef f6 d8 22 3b 17 67 93 77 f8 1d ca 20 d6 01 01
       -17 -10 -40 34 59 23 103 -109 119 -8 29 -54 32 -42 1 1
000090 fe fb 0a 2b 7f bc 45 fc f5 5c ac 2b 37 c2 f2 1f
       -2 -5 10 43 127 -68 69 -4 -11 92 -84 43 55 -62 -14 31
0000a0 11 58 fe 16 2b fa 22 f2 0b 2b da ec 2c 00 81 69
       17 88 -2 22 43 -6 34 -14 11 43 -38 -20 44 0 -127 105
0000b0 5a 3e fe d3 17 fb 14 02 bc 08 45 2c b4 28 dd 2a
       90 62 -2 -45 23 -5 20 2 -68 8 69 44 -76 40 -35 42
0000c0 ca ea f2 f1 d4 10 ac 0e ea ce 31 78 a4 7f 1f 30
       -54 -22 -14 -15 -44 16 -84 14 -22 -50 49 120 -92 127 31 48
0000d0 c5 0e 6a 0a 1e 59 1b 5f 12 98 ee ec 21 1b 6c 07
       -59 14 106 10 30 89 27 95 18 -104 -18 -20 33 27 108 7
0000e0 c5 2c ef 05 27 42 f5 b9 3d d9 f0 9b 54 2d 5d c8
       -59 44 -17 5 39 66 -11 -71 61 -39 -16 -101 84 45 93 -56
0000f0 d3 1a d6 17 cf 05 f6 2d fb 23 29 0b 5c 7f 0e 46
       -45 26 -42 23 -49 5 -10 45 -5 35 41 11 92 127 14 70

model/conv2d_9/Conv2D i1 [32, 1, 1, 8]
000000 ae 46 a2 33 2e 7f d4 70 29 8f 85 0a 2f 7f f4 6e
       -82 70 -94 51 46 127 -44 112 41 -113 -123 10 47 127 -12 110
000010 b2 f1 b8 7f 4a 23 22 40 81 62 37 cc b4 48 93 01
       -78 -15 -72 127 74 35 34 64 -127 98 55 -52 -76 72 -109 1
000020 c4 40 81 85 d7 58 bd 0c 1a 28 fe 24 d8 81 dc f0
       -60 64 -127 -123 -41 88 -67 12 26 40 -2 36 -40 -127 -36 -16
000030 9d 4f db ab ff 7f 21 41 7f 40 e6 55 0b de 47 aa
       -99 79 -37 -85 -1 127 33 65 127 64 -26 85 11 -34 71 -86
000040 81 1c dc 1e 30 f4 08 15 24 81 f7 13 27 9a e6 22
       -127 28 -36 30 48 -12 8 21 36 -127 -9 19 39 -102 -26 34
000050 b6 64 81 64 37 6f be 4a d0 42 7e 20 36 19 26 81
       -74 100 -127 100 55 111 -66 74 -48 66 126 32 54 25 38 -127
000060 ba b1 08 1a b0 81 eb d4 81 17 ef e7 b9 f0 f4 1a
       -70 -79 8 26 -80 -127 -21 -44 -127 23 -17 -25 -71 -16 -12 26
000070 7f dd c5 16 37 e1 d6 b7 fe d0 e4 e9 ea 54 2b 7f
       127 -35 -59 22 55 -31 -42 -73 -2 -48 -28 -23 -22 84 43 127
000080 18 2f ef c8 12 81 18 30 fd df 79 3b 28 02 fe 7f
       24 47 -17 -56 18 -127 24 48 -3 -33 121 59 40 2 -2 127
000090 1a c7 fa 01 22 81 20 38 d4 7f 64 04 0d 82 39 a4
       26 -57 -6 1 34 -127 32 56 -44 127 100 4 13 -126 57 -92
0000a0 14 81 d8 f7 12 3f 21 31 dd 81 24 63 2a aa ae f1
       20 -127 -40 -9 18 63 33 49 -35 -127 36 99 42 -86 -82 -15
0000b0 38 26 28 8c 7f 43 5c 63 e4 10 63 b5 f2 81 0a 5b
       56 38 40 -116 127 67 92 99 -28 16 99 -75 -14 -127 10 91
0000c0 08 f5 81 4c 51 f4 93 16 3b 18 52 5c 47 7f 4d ee
       8 -11 -127 76 81 -12 -109 22 59 24 82 92 71 127 77 -18
0000d0 e7 ee e1 d3 db a4 e1 7f fa 12 31 bb fa 81 ea dd
       -25 -18 -31 -45 -37 -92 -31 127 -6 18 49 -69 -6 -127 -22 -35
0000e0 2e ed 9a be 71 81 d2 97 07 81 04 f4 38 01 0b f7
       46 -19 -102 -66 113 -127 -46 -105 7 -127 4 -12 56 1 11 -9
0000f0 e7 7a 0c 30 0d 81 f5 09 c4 ef e1 c6 e7 7f fa 51
       -25 122 12 48 13 -127 -11 9 -60 -17 -31 -58 -25 127 -6 81

model/batch_normalization_14/FusedBatchNormV3;model/depthwise_conv2d_4/depthwise;model/depthwise_conv2d_5/depthwise i1 [1, 3, 3, 32]
000000 31 cf 11 dd fe 1d 16 bc e2 f4 dc fd 03 87 cb 2a
       49 -49 17 -35 -2 29 22 -68 -30 -12 -36 -3 3 -121 -53 42
000010 7f 12 56 dc ea db eb f2 ae c3 d2 b0 39 e5 fc 24
       127 18 86 -36 -22 -37 -21 -14 -82 -61 -46 -80 57 -27 -4 36
000020 08 d9 d2 74 fc 30 7f fc 4c 67 22 90 d9 f6 31 3c
       8 -39 -46 116 -4 48 127 -4 76 103 34 -112 -39 -10 49 60
000030 68 ac ec d4 4e a5 7c 27 7f 02 e5 b1 ba ac 13 81
       104 -84 -20 -44 78 -91 124 39 127 2 -27 -79 -70 -84 19 -127
000040 b1 c4 f4 ea 3a c3 ba 16 e0 63 03 f3 28 c0 07 24
       -79 -60 -12 -22 58 -61 -70 22 -32 99 3 -13 40 -64 7 36
000050 b7 1e f6 32 c1 82 ce ee b2 75 43 a6 c8 38 37 07
       -73 30 -10 50 -63 -126 -50 -18 -78 117 67 -90 -56 56 55 7
000060 73 e7 b8 5c 0f fc c9 d7 1d ce 81 06 c5 dc df 34
       115 -25 -72 92 15 -4 -55 -41 29 -50 -127 6 -59 -36 -33 52
000070 f3 00 38 0f 5b ae 01 ee ae 03 0d 14 ef dc be c6
       -13 0 56 15 91 -82 1 -18 -82 3 13 20 -17 -36 -66 -58
000080 e4 f0 81 f8 9c 54 12 32 26 81 29 9d 9b 27 81 5b
       -28 -16 -127 -8 -100 84 18 50 38 -127 41 -99 -101 39 -127 91
000090 85 61 81 b4 c2 b1 cd db 60 81 81 e0 7f cd 10 c6
       -123 97 -127 -76 -62 -79 -51 -37 96 -127 -127 -32 127 -51 16 -58
0000a0 81 fc c0 dc 33 81 52 0b 3d e3 4d 0d 7c e2 f3 1f
       -127 -4 -64 -36 51 -127 82 11 61 -29 77 13 124 -30 -13 31
0000b0 fc 92 f8 3e f4 7f fb 6f ba 72 d8 0c c0 26 7f cd
       -4 -110 -8 62 -12 127 -5 111 -70 114 -40 12 -64 38 127 -51
0000c0 48 11 d9 2d 7f 10 ef 21 27 0b c8 13 d8 a0 78 cb
       72 17 -39 45 127 16 -17 33 39 11 -56 19 -40 -96 120 -53
0000d0 bd 81 f3 db 5e e9 08 f1 a3 10 48 1e dc f8 2e da
       -67 -127 -13 -37 94 -23 8 -15 -93 16 72 30 -36 -8 46 -38
0000e0 b5 7f b0 81 cf 40 ab 29 7f d2 e5 7f 26 00 83 7f
       -75 127 -80 -127 -49 64 -85 41 127 -46 -27 127 38 0 -125 127
0000f0 e0 3a df 94 81 c5 81 81 e2 c1 4f 7f fd d5 eb 95
       -32 58 -33 -108 -127 -59 -127 -127 -30 -63 79 127 -3 -43 -21 -107

model/conv2d_10/Conv2D i1 [8, 1, 1, 32]
000000 30 aa c3 39 81 18 26 bf c7 ef e7 da b6 fe 98 f6
       48 -86 -61 57 -127 24 38 -65 -57 -17 -25 -38 -74 -2 -104 -10
000010 ed 04 16 d8 5c 00 35 c6 10 98 da 99 1b 87 39 a8
       -19 4 22 -40 92 0 53 -58 16 -104 -38 -103 27 -121 57 -88
000020 36 6c e4 95 1c de 96 01 70 81 1c 17 44 19 f3 15
       54 108 -28 -107 28 -34 -106 1 112 -127 28 23 68 25 -13 21
000030 aa c8 ba 76 bc 84 e0 f5 9b 0a 38 56 b9 2a ec 53
       -86 -56 -70 118 -68 -124 -32 -11 -101 10 56 86 -71 42 -20 83
000040 2a a6 ad ad 2b 53 3c bc af f7 57 81 eb e7 2b ef
       42 -90 -83 -83 43 83 60 -68 -81 -9 87 -127 -21 -25 43 -17
000050 a7 09 f7 49 12 ce 0d 73 d7 2b ea c9 39 06 3c d0
       -89 9 -9 73 18 -50 13 115 -41 43 -22 -55 57 6 60 -48
000060 e9 f8 ae 20 96 f0 50 c1 d5 20 b7 11 f7 81 cf c3
       -23 -8 -82 32 -106 -16 80 -63 -43 32 -73 17 -9 -127 -49 -61
000070 27 26 f9 e3 04 3c 22 df 33 2d 21 ec 35 f6 f0 06
       39 38 -7 -29 4 60 34 -33 51 45 33 -20 53 -10 -16 6
000080 f2 13 c9 21 06 63 27 db fe 17 de eb c4 e5 05 1b
       -14 19 -55 33 6 99 39 -37 -2 23 -34 -21 -60 -27 5 27
000090 fd ca 55 48 14 32 e8 c3 14 bc c3 24 09 19 7f 95
       -3 -54 85 72 20 50 -24 -61 20 -68 -61 36 9 25 127 -107
0000a0 e8 23 36 fb 4d b8 f0 2e 5b f4 e2 b4 b8 0e 58 5d
       -24 35 54 -5 77 -72 -16 46 91 -12 -30 -76 -72 14 88 93
0000b0 53 09 d2 ce d4 f8 f3 ca e9 2a 07 7f 00 2f 16 4f
       83 9 -46 -50 -44 -8 -13 -54 -23 42 7 127 0 47 22 79
0000c0 52 c3 c5 45 a3 43 de d1 9b 17 4f 28 5b c0 f8 b3
       82 -61 -59 69 -93 67 -34 -47 -101 23 79 40 91 -64 -8 -77
0000d0 e4 35 7f da 46 14 68 2e 1f 62 d5 a9 07 b0 f7 bf
       -28 53 127 -38 70 20 104 46 31 98 -43 -87 7 -80 -9 -65
0000e0 a3 1a 17 09 04 bf 43 bb 22 4e f5 6e 37 36 4e 08
       -93 26 23 9 4 -65 67 -69 34 78 -11 110 55 54 78 8
0000f0 30 53 a7 af ea 45 03 6e 35 0c 7f da 4a fe 9e fc
       48 83 -89 -81 -22 69 3 110 53 12 127 -38 74 -2 -98 -4

model/conv2d_11/Conv2D i1 [32, 1, 1, 8]
000000 2b 34 81 55 5a 15 07 cb 66 05 81 22 15 bc 2b b6
       43 52 -127 85 90 21 7 -53 102 5 -127 34 21 -68 43 -74
000010 95 fd 63 81 c8 9a 42 a5 18 e8 21 28 0c 7f d6 a8
       -107 -3 99 -127 -56 -102 66 -91 24 -24 33 40 12 127 -42 -88
000020 2e b9 7f 35 0d 86 12 c9 81 29 21 1e 26 d3 4a f3
       46 -71 127 53 13 -122 18 -55 -127 41 33 30 38 -45 74 -13
000030 fd bf d6 3e 13 81 1d 57 d5 47 8b 78 81 ba 0f 78
       -3 -65 -42 62 19 -127 29 87 -43 71 -117 120 -127 -70 15 120
000040 07 07 81 30 3e 50 b6 40 81 13 d1 e9 ef 57 36 59
       7 7 -127 48 62 80 -74 64 -127 19 -47 -23 -17 87 54 89
000050 45 ff af 37 bc 81 29 59 a9 ca 68 81 c6 93 1b 8b
       69 -1 -81 55 -68 -127 41 89 -87 -54 104 -127 -58 -109 27 -117
000060 f4 ef b9 0f 12 81 2f 7a 4b bd fc 2b 77 81 3e 52
       -12 -17 -71 15 18 -127 47 122 75 -67 -4 43 119 -127 62 82
000070 2f ef 6b f2 40 81 3d cc 16 fa 62 7f e9 a7 12 d8
       47 -17 107 -14 64 -127 61 -52 22 -6 98 127 -23 -89 18 -40
000080 d4 d3 f6 46 d6 37 7f 1a 00 e2 e6 23 45 b3 40 81
       -44 -45 -10 70 -42 55 127 26 0 -30 -26 35 69 -77 64 -127
000090 81 fa ee fc 47 48 2e ff af 06 75 13 7f b0 32 e4
       -127 -6 -18 -4 71 72 46 -1 -81 6 117 19 127 -80 50 -28
0000a0 f6 f5 ce cd 1b 81 12 67 10 ea a4 07 1b 81 27 5d
       -10 -11 -50 -51 27 -127 18 103 16 -22 -92 7 27 -127 39 93
0000b0 56 de 7f 6b 1f ed 00 7f 54 1c 62 c7 4e 81 14 a6
       86 -34 127 107 31 -19 0 127 84 28 98 -57 78 -127 20 -90
0000c0 7f f8 57 05 0b 8a 3b b7 7f b2 c8 5e 2d 9f 63 5e
       127 -8 87 5 11 -118 59 -73 127 -78 -56 94 45 -97 99 94
0000d0 5a 96 8d b0 44 57 7f f2 e0 c9 08 81 f1 3e c5 31
       90 -106 -115 -80 68 87 127 -14 -32 -55 8 -127 -15 62 -59 49
0000e0 81 12 02 28 64 fc 20 f4 f7 d5 e8 40 40 81 d0 ed
       -127 18 2 40 100 -4 32 -12 -9 -43 -24 64 64 -127 -48 -19
0000f0 15 14 7f 7b 2e f4 e7 6e 7f d5 dc 10 0b 82 26 32
       21 20 127 123 46 -12 -25 110 127 -43 -36 16 11 -126 38 50

model/batch_normalization_17/FusedBatchNormV3;model/depthwise_conv2d_5/depthwise i1 [1, 3, 3, 32]
000000 ea 25 1d 2c 44 c4 30 3b 2b f2 fb 40 81 f9 1c 01
       -22 37 29 44 68 -60 48 59 43 -14 -5 64 -127 -7 28 1
000010 ee ab f0 e5 38 12 16 23 ef f7 0d fe 2b 25 f0 81
       -18 -85 -16 -27 56 18 22 35 -17 -9 13 -2 43 37 -16 -127
000020 a5 32 4b 09 81 c1 d1 21 33 28 2e 49 bd 49 5d 49
       -91 50 75 9 -127 -63 -47 33 51 40 46 73 -67 73 93 73
000030 c1 d4 c2 00 52 7f 36 44 14 97 40 ed 57 5d a5 4f
       -63 -44 -62 0 82 127 54 68 20 -105 64 -19 87 93 -91 79
000040 c4 0c 41 81 e7 a9 81 13 26 49 47 5a 19 7f eb a9
       -60 12 65 -127 -25 -87 -127 19 38 73 71 90 25 127 -21 -87
000050 da f0 cb 28 29 d8 2b 1d 3e 41 4b f9 02 44 ac fe
       -38 -16 -53 40 41 -40 43 29 62 65 75 -7 2 68 -84 -2
000060 c9 59 2a 56 61 ad 46 60 40 3f f5 f3 e5 ea 1b 02
       -55 89 42 86 97 -83 70 96 64 63 -11 -13 -27 -22 27 2
000070 d2 9c f7 ef 3b 67 34 0c e8 e3 27 d0 44 1e c2 84
       -46 -100 -9 -17 59 103 52 12 -24 -29 39 -48 68 30 -62 -124
000080 81 7f 7f 26 a3 84 4a 7f 7f 5c 53 f7 31 e3 7f 65
       -127 127 127 38 -93 -124 74 127 127 92 83 -9 49 -29 127 101
000090 81 af 90 2d 7f 38 7f 09 26 98 7f 81 7f 6d 81 79
       -127 -81 -112 45 127 56 127 9 38 -104 127 -127 127 109 -127 121
0000a0 9c 27 6d 8f ec 81 8f 44 62 79 7f 32 03 ed d3 81
       -100 39 109 -113 -20 -127 -113 68 98 121 127 50 3 -19 -45 -127
0000b0 a9 ca 81 7f 62 a2 6d 26 7f 7f 6f b5 01 7f ae f7
       -87 -54 -127 127 98 -94 109 38 127 127 111 -75 1 127 -82 -9
0000c0 b7 41 19 39 3a d5 1c 38 23 20 01 96 57 f4 03 05
       -73 65 25 57 58 -43 28 56 35 32 1 -106 87 -12 3 5
0000d0 dc d4 ee 03 1a 32 1f ad f5 e6 25 db 21 15 90 d2
       -36 -44 -18 3 26 50 31 -83 -11 -26 37 -37 33 21 -112 -46
0000e0 97 5d 3e 16 df 9a 70 62 60 37 33 81 65 e8 40 36
       -105 93 62 22 -33 -102 112 98 96 55 51 -127 101 -24 64 54
0000f0 a6 8d be 2e 50 ad 62 81 13 c4 5d 8b 43 3c 8d 48
       -90 -115 -66 46 80 -83 98 -127 19 -60 93 -117 67 60 -115 72

model/conv2d_12/Conv2D i1 [8, 1, 1, 32]
000000 06 f7 98 d0 de 39 ce c5 1e db 1c f8 f2 0e cc c3
       6 -9 -104 -48 -34 57 -50 -59 30 -37 28 -8 -14 14 -52 -61
000010 13 14 2f cf 81 df 36 0e 3e 15 3a ec 17 f6 f5 e4
       19 20 47 -49 -127 -33 54 14 62 21 58 -20 23 -10 -11 -28
000020 f5 45 1c 00 1f 1b e8 bf 81 cd 01 d0 d9 14 7f 0c
       -11 69 28 0 31 27 -24 -65 -127 -51 1 -48 -39 20 127 12
000030 d8 b0 2b fb ca f6 e4 f0 60 25 2a 28 fa 0f 10 35
       -40 -80 43 -5 -54 -10 -28 -16 96 37 42 40 -6 15 16 53
000040 bc 78 dd fd f0 f1 0f 24 26 0f ec 0d 1f 09 f6 0f
       -68 120 -35 -3 -16 -15 15 36 38 15 -20 13 31 9 -10 15
000050 db dc e1 fc 81 2a d6 fe d4 fc 1d 01 e5 19 31 0b
       -37 -36 -31 -4 -127 42 -42 -2 -44 -4 29 1 -27 25 49 11
000060 ec 48 ab f4 dd 2c 1f 35 09 fa 77 02 0b 0b 10 0f
       -20 72 -85 -12 -35 44 31 53 9 -6 119 2 11 11 16 15
000070 30 07 15 1c 7f 24 70 16 28 fd f2 4a c2 14 d1 29
       48 7 21 28 127 36 112 22 40 -3 -14 74 -62 20 -47 41
000080 ec 4f 2f 09 d9 e6 e3 f4 2c 17 0e 0c 13 08 c3 f3
       -20 79 47 9 -39 -26 -29 -12 44 23 14 12 19 8 -61 -13
000090 48 db e0 4c 1e 0d a4 10 7f 0c fd 11 3e 14 37 e9
       72 -37 -32 76 30 13 -92 16 127 12 -3 17 62 20 55 -23
0000a0 05 e7 02 04 34 e3 40 ba 5a 07 e1 11 f0 32 3c 2a
       5 -25 2 4 52 -29 64 -70 90 7 -31 17 -16 50 60 42
0000b0 09 ef a5 35 e4 0a 7f 37 dd 31 24 a9 34 79 eb 3d
       9 -17 -91 53 -28 10 127 55 -35 49 36 -87 52 121 -21 61
0000c0 e9 f2 f3 3b f2 f1 04 fa f2 e4 4a f8 2b 3c b8 c8
       -23 -14 -13 59 -14 -15 4 -6 -14 -28 74 -8 43 60 -72 -56
0000d0 82 e7 22 e4 7f 1f de d1 db 4f 37 c2 2d 38 09 fc
       -126 -25 34 -28 127 31 -34 -47 -37 79 55 -62 45 56 9 -4
0000e0 1c c4 0f 2f db cc 1d 43 fa 1b cf 1d 2e 02 b6 16
       28 -60 15 47 -37 -52 29 67 -6 27 -49 29 46 2 -74 22
0000f0 b5 09 1e 5c 81 1a 67 f4 51 f2 d3 1e 02 13 bb df
       -75 9 30 92 -127 26 103 -12 81 -14 -45 30 2 19 -69 -33

model/conv2d_13/Conv2D i1 [48, 1, 1, 8]
000000 ab 32 14 81 47 3b 35 5f 81 d7 c4 e3 f4 e3 2f c7
       -85 50 20 -127 71 59 53 95 -127 -41 -60 -29 -12 -29 47 -57
000010 a4 37 ed 7f 33 c6 bc 15 b4 7f d1 17 fc d5 20 30
       -92 55 -19 127 51 -58 -68 21 -76 127 -47 23 -4 -43 32 48
000020 fb e7 e6 91 7f d5 aa 42 c3 ec 0a 64 7f dd d7 0e
       -5 -25 -26 -111 127 -43 -86 66 -61 -20 10 100 127 -35 -41 14
000030 21 7f 30 ed de 11 e9 53 7f a8 7b fc f7 f5 ef b9
       33 127 48 -19 -34 17 -23 83 127 -88 123 -4 -9 -11 -17 -71
000040 d2 44 f1 7d 81 58 3b 46 81 e4 87 70 e6 c9 79 88
       -46 68 -15 125 -127 88 59 70 -127 -28 -121 112 -26 -55 121 -120
000050 d4 e0 eb 7f 33 05 22 10 f9 77 eb 7f c2 17 e3 50
       -44 -32 -21 127 51 5 34 16 -7 119 -21 127 -62 23 -29 80
000060 7f e1 62 9c 34 3e 16 22 32 25 e5 81 e2 84 96 cf
       127 -31 98 -100 52 62 22 34 50 37 -27 -127 -30 -124 -106 -49
000070 d9 d4 ee 90 f8 9c 7f 73 48 14 32 18 15 7f e4 c4
       -39 -44 -18 -112 -8 -100 127 115 72 20 50 24 21 127 -28 -60
000080 85 89 eb 81 25 e4 41 1d a3 7f 0a 58 d5 2c 2b a1
       -123 -119 -21 -127 37 -28 65 29 -93 127 10 88 -43 44 43 -95
000090 81 46 c9 bd 10 2b cd c9 d6 09 ce 60 0b 68 7f 06
       -127 70 -55 -67 16 43 -51 -55 -42 9 -50 96 11 104 127 6
0000a0 b2 f6 44 a2 34 0c 11 81 fb 48 3e 53 d7 24 7f 17
       -78 -10 68 -94 52 12 17 -127 -5 72 62 83 -41 36 127 23
0000b0 27 81 48 fa e1 37 20 c5 fe f2 d1 81 d8 9e e7 e7
       39 -127 72 -6 -31 55 32 -59 -2 -14 -47 -127 -40 -98 -25 -25
0000c0 ea 95 19 8d c3 1e 24 81 7e ca df a0 7f e6 21 e0
       -22 -107 25 -115 -61 30 36 -127 126 -54 -33 -96 127 -26 33 -32
0000d0 7f 35 a6 24 aa 08 70 ef e6 61 b9 85 14 7f 89 e9
       127 53 -90 36 -86 8 112 -17 -26 97 -71 -123 20 127 -119 -23
0000e0 c1 0a eb 47 7f 27 97 e1 f5 06 e0 bc eb 81 df f3
       -63 10 -21 71 127 39 -105 -31 -11 6 -32 -68 -21 -127 -33 -13
0000f0 38 81 e9 08 de dd d2 28 dc 9f 28 81 1a 0e 21 ef
       56 -127 -23 8 -34 -35 -46 40 -36 -97 40 -127 26 14 33 -17

model/batch_normalization_20/FusedBatchNormV3;model/depthwise_conv2d_6/depthwise;model/conv2d_48/Conv2D i1 [1, 3, 3, 48]
000000 0c 0e ec c8 be 26 04 ac 2e 4a b3 96 d6 5b d6 d4
       12 14 -20 -56 -66 38 4 -84 46 74 -77 -106 -42 91 -42 -44
000010 24 fa f2 47 16 26 dd ec 11 17 9b ee d1 0a 4e 24
       36 -6 -14 71 22 38 -35 -20 17 23 -101 -18 -47 10 78 36
000020 ea 1f 17 d1 81 81 04 f3 2d d8 b3 3d ea c6 81 1c
       -22 31 23 -47 -127 -127 4 -13 45 -40 -77 61 -22 -58 -127 28
000030 dd 7f cd 08 56 39 7f ca fe 2d e9 02 3b 15 f1 81
       -35 127 -51 8 86 57 127 -54 -2 45 -23 2 59 21 -15 -127
000040 03 d9 b7 b6 14 99 7f 07 d3 96 3e e1 7f 0a 2b 6b
       3 -39 -73 -74 20 -103 127 7 -45 -106 62 -31 127 10 43 107
000050 ca 3e f3 7f 93 ba 5c c5 0b fb 33 7f e8 81 fe 16
       -54 62 -13 127 -109 -70 92 -59 11 -5 51 127 -24 -127 -2 22
000060 0d 1f f4 9a 9f 5c f1 48 01 e4 31 7f 09 f7 d2 bd
       13 31 -12 -102 -97 92 -15 72 1 -28 49 127 9 -9 -46 -67
000070 23 c3 20 b9 24 e0 cc f4 e1 33 ba 23 be 10 af 2b
       35 -61 32 -71 36 -32 -52 -12 -31 51 -70 35 -66 16 -81 43
000080 7f 0b fa f4 a0 ba a3 fa ef 4d 2c 34 7c d0 05 10
       127 11 -6 -12 -96 -70 -93 -6 -17 77 44 52 124 -48 5 16
000090 9f bf 14 d5 f0 f0 cf 2b 06 c2 96 da d6 23 14 8d
       -97 -65 20 -43 -16 -16 -49 43 6 -62 -106 -38 -42 35 20 -115
0000a0 f5 5e c3 2f 1e 8c 63 32 7f 06 da 01 24 44 e0 81
       -11 94 -61 47 30 -116 99 50 127 6 -38 1 36 68 -32 -127
0000b0 f6 50 25 1d 62 8c a3 ff 66 f1 aa 0e bb 21 fc 22
       -10 80 37 29 98 -116 -93 -1 102 -15 -86 14 -69 33 -4 34
0000c0 d8 03 7f 81 16 d2 17 7f 81 af 81 0d e1 7f 81 d5
       -40 3 127 -127 22 -46 23 127 -127 -81 -127 13 -31 127 -127 -43
0000d0 81 81 02 b5 7f 7f db 7f ab 7f 6c 90 dc 81 27 2b
       -127 -127 2 -75 127 127 -37 127 -85 127 108 -112 -36 -127 39 43
0000e0 a7 7f 81 71 f5 5f 8e 7f ea b5 43 31 0a 0c 4e 7f
       -89 127 -127 113 -11 95 -114 127 -22 -75 67 49 10 12 78 127
0000f0 81 ab 33 9e c0 27 cc fe d5 e4 7c d9 62 27 27 7a
       -127 -85 51 -98 -64 39 -52 -2 -43 -28 124 -39 98 39 39 122

model/conv2d_14/Conv2D i1 [8, 1, 1, 48]
000000 0f b4 2c 4d f8 30 bb 0b 19 d0 00 29 ae b0 b6 f0
       15 -76 44 77 -8 48 -69 11 25 -48 0 41 -82 -80 -74 -16
000010 02 f3 e9 19 df fe ed e3 d1 2a f7 ee 2d 2c 23 81
       2 -13 -23 25 -33 -2 -19 -29 -47 42 -9 -18 45 44 35 -127
000020 e4 22 c2 fd f4 0f 41 e9 e8 08 9e d0 06 22 e4 6c
       -28 34 -62 -3 -12 15 65 -23 -24 8 -98 -48 6 34 -28 108
000030 22 ab e0 ff ec 2c bc 86 b1 f6 da f4 19 cb 38 ec
       34 -85 -32 -1 -20 44 -68 -122 -79 -10 -38 -12 25 -53 56 -20
000040 2b 93 8f 4e c8 13 49 12 28 52 d9 f1 af 0c 2e 54
       43 -109 -113 78 -56 19 73 18 40 82 -39 -15 -81 12 46 84
000050 c7 b7 23 4a 08 1c 2f 4b bd 09 08 3a ed d6 18 7f
       -57 -73 35 74 8 28 47 75 -67 9 8 58 -19 -42 24 127
000060 4f 22 47 fa 22 96 b9 74 0d 5d f1 3e d4 1c 31 56
       79 34 71 -6 34 -106 -71 116 13 93 -15 62 -44 28 49 86
000070 0c 20 07 14 ec 43 9f 40 e7 d7 1d b5 22 19 0d ff
       12 32 7 20 -20 67 -97 64 -25 -41 29 -75 34 25 13 -1
000080 19 d0 cc 0e dd 61 05 bd 81 0e 44 ed 12 ff 2b f5
       25 -48 -52 14 -35 97 5 -67 -127 14 68 -19 18 -1 43 -11
000090 3b c0 27 79 f3 fe 19 c8 9c 2d 30 e2 4b c1 6a e9
       59 -64 39 121 -13 -2 25 -56 -100 45 48 -30 75 -63 106 -23
0000a0 3b 17 ec 07 c0 2d c6 f4 44 28 91 10 d7 f0 9d ab
       59 23 -20 7 -64 45 -58 -12 68 40 -111 16 -41 -16 -99 -85
0000b0 31 81 f2 5a d9 e1 35 3d e6 db db f7 28 f4 72 37
       49 -127 -14 90 -39 -31 53 61 -26 -37 -37 -9 40 -12 114 55
0000c0 03 03 ed ca d1 53 73 68 e3 e8 f7 36 19 10 f1 27
       3 3 -19 -54 -47 83 115 104 -29 -24 -9 54 25 16 -15 39
0000d0 12 e5 32 ed 7e f7 d4 34 f6 2c 2b 0c ba 00 f9 2e
       18 -27 50 -19 126 -9 -44 52 -10 44 43 12 -70 0 -7 46
0000e0 d7 0c 15 e1 81 d1 02 c9 e5 bc 2e df 9c 38 ca 32
       -41 12 21 -31 -127 -47 2 -55 -27 -68 46 -33 -100 56 -54 50
0000f0 12 af 39 29 25 f7 e6 01 f1 a0 7f 01 19 f6 5d 36
       18 -81 57 41 37 -9 -26 1 -15 -96 127 1 25 -10 93 54

model/conv2d_15/Conv2D i1 [48, 1, 1, 8]
000000 32 0d e5 03 aa 7f 18 27 ca 31 3d 73 40 c5 7f fd
       50 13 -27 3 -86 127 24 39 -54 49 61 115 64 -59 127 -3
000010 4d d5 f9 3d ab 45 d1 7f 46 3c d4 f5 e1 eb 81 27
       77 -43 -7 61 -85 69 -47 127 70 60 -44 -11 -31 -21 -127 39
000020 6c 0b f8 7f 41 4e 08 e5 38 8f 34 f8 8f 81 b8 45
       108 11 -8 127 65 78 8 -27 56 -113 52 -8 -113 -127 -72 69
000030 b5 fb e2 7c cc c4 7f de 9c 3b 76 7f 2a a7 2e ea
       -75 -5 -30 124 -52 -60 127 -34 -100 59 118 127 42 -89 46 -22
000040 ef fa d9 e8 5c de eb 7f 7f 19 35 5c ae 96 c7 0e
       -17 -6 -39 -24 92 -34 -21 127 127 25 53 92 -82 -106 -57 14
000050 10 2a 7f 00 2f 09 49 df b0 0c 44 15 0e 7f 53 12
       16 42 127 0 47 9 73 -33 -80 12 68 21 14 127 83 18
000060 d0 32 16 48 81 2b cb ee 9e dd 1f 0a 7f fd 2f d3
       -48 50 22 72 -127 43 -53 -18 -98 -35 31 10 127 -3 47 -45
000070 40 10 05 79 3b 7f ae d7 dc b8 91 7f 07 33 b4 f4
       64 16 5 121 59 127 -82 -41 -36 -72 -111 127 7 51 -76 -12
000080 da 23 4a d3 e6 81 14 de 46 12 24 81 2f e2 eb 89
       -38 35 74 -45 -26 -127 20 -34 70 18 36 -127 47 -30 -21 -119
000090 4a 03 39 ab 23 23 bc 7f 0b ce d9 81 30 18 34 e1
       74 3 57 -85 35 35 -68 127 11 -50 -39 -127 48 24 52 -31
0000a0 c2 7e 32 98 fb 59 33 7f 41 81 1d 0b bb fa ec 22
       -62 126 50 -104 -5 89 51 127 65 -127 29 11 -69 -6 -20 34
0000b0 f0 ef 52 fc 7f 09 0a b3 7f 79 38 2c c5 e5 c9 4f
       -16 -17 82 -4 127 9 10 -77 127 121 56 44 -59 -27 -55 79
0000c0 db 79 1e 5e 81 67 98 a6 f9 ee c0 5f 12 c7 0a 81
       -37 121 30 94 -127 103 -104 -90 -7 -18 -64 95 18 -57 10 -127
0000d0 3c f3 24 bc 7f e8 c6 97 46 d1 00 7f c6 af 07 d8
       60 -13 36 -68 127 -24 -58 -105 70 -47 0 127 -58 -81 7 -40
0000e0 02 0a e4 a1 dd 4c 81 d9 40 11 f6 0a fa 2c 7f b1
       2 10 -28 -95 -35 76 -127 -39 64 17 -10 10 -6 44 127 -79
0000f0 53 33 ef 75 67 7f b9 e0 7f bf c9 dc 55 da 0a ef
       83 51 -17 117 103 127 -71 -32 127 -65 -55 -36 85 -38 10 -17

model/batch_normalization_23/FusedBatchNormV3;model/depthwise_conv2d_7/depthwise;model/conv2d_48/Conv2D i1 [1, 3, 3, 48]
000000 3b d0 7f be 23 3e fa ea 1e 10 fb d3 d4 7f e3 6c
       59 -48 127 -66 35 62 -6 -22 30 16 -5 -45 -44 127 -29 108
000010 30 ef 12 09 6c 13 db 2a 38 a7 f0 7f aa 06 81 23
       48 -17 18 9 108 19 -37 42 56 -89 -16 127 -86 6 -127 35
000020 32 7f bb 37 39 b0 38 f1 f0 2b 92 34 12 16 e4 04
       50 127 -69 55 57 -80 56 -15 -16 43 -110 52 18 22 -28 4
000030 f7 c2 ba d5 5c d2 7f 60 81 0f 52 f5 e3 91 9e 63
       -9 -62 -70 -43 92 -46 127 96 -127 15 82 -11 -29 -111 -98 99
000040 53 63 81 4e 27 9d e5 ed cf 81 35 f0 24 d2 b5 41
       83 99 -127 78 39 -99 -27 -19 -49 -127 53 -16 36 -46 -75 65
000050 37 62 bb 3c 24 65 d7 18 34 81 a0 c9 59 49 81 7f
       55 98 -69 60 36 101 -41 24 52 -127 -96 -55 89 73 -127 127
000060 c0 e5 27 e4 30 8a 31 45 ed 11 f3 25 81 1a ea 5e
       -64 -27 39 -28 48 -118 49 69 -19 17 -13 37 -127 26 -22 94
000070 58 3c e0 31 42 e3 6f 7f 7f c9 51 cd 4f 22 81 e5
       88 60 -32 49 66 -29 111 127 127 -55 81 -51 79 34 -127 -27
000080 fb 58 a1 cb e9 81 2b ef 00 ab ab 1f dc 36 01 f2
       -5 88 -95 -53 -23 -127 43 -17 0 -85 -85 31 -36 54 1 -14
000090 f7 81 33 36 e2 3a 36 a9 48 f2 f7 ea ff d9 f5 d9
       -9 -127 51 54 -30 58 54 -87 72 -14 -9 -22 -1 -39 -11 -39
0000a0 c7 d4 f4 f5 b2 c8 32 c3 40 f7 f8 41 fb d3 0a f0
       -57 -44 -12 -11 -78 -56 50 -61 64 -9 -8 65 -5 -45 10 -16
0000b0 e2 09 01 b1 1d f5 0f 16 e1 05 34 07 c6 33 bf 9c
       -30 9 1 -79 29 -11 15 22 -31 5 52 7 -58 51 -65 -100
0000c0 d0 ad a1 7f 0b 67 f6 bd f8 7f 4d 81 d5 1f 7f 62
       -48 -83 -95 127 11 103 -10 -67 -8 127 77 -127 -43 31 127 98
0000d0 ca 8a e8 7f 36 7f 81 99 8f 21 7f c9 81 04 8a 7f
       -54 -118 -24 127 54 127 -127 -103 -113 33 127 -55 -127 4 -118 127
0000e0 51 cf 8f 69 81 5c bd 81 2a f9 9f 8f 0b 7a 23 9b
       81 -49 -113 105 -127 92 -67 -127 42 -7 -97 -113 11 122 35 -101
0000f0 e5 0b e0 c5 c8 18 17 b8 30 d3 17 46 74 e9 11 55
       -27 11 -32 -59 -56 24 23 -72 48 -45 23 70 116 -23 17 85

model/conv2d_16/Conv2D i1 [8, 1, 1, 48]
000000 51 cd 08 08 0e 40 1b ea 51 d0 ca bb 7d c1 0f ed
       81 -51 8 8 14 64 27 -22 81 -48 -54 -69 125 -63 15 -19
000010 25 c9 fe 9e f2 2b 03 da 5c 1c 07 1e fd 7f 13 e1
       37 -55 -2 -98 -14 43 3 -38 92 28 7 30 -3 127 19 -31
000020 ce 18 07 1c c7 6c c5 3d 2a 00 29 4a cf 56 1e bc
       -50 24 7 28 -57 108 -59 61 42 0 41 74 -49 86 30 -68
000030 d7 33 3b 03 10 c0 41 ed 02 08 86 0a 25 f5 f9 fd
       -41 51 59 3 16 -64 65 -19 2 8 -122 10 37 -11 -7 -3
000040 be fc 00 1d 67 df 18 ed 11 0a 93 1e d9 02 ba 1f
       -66 -4 0 29 103 -33 24 -19 17 10 -109 30 -39 2 -70 31
000050 7f f4 34 9b 27 d3 c0 cc d8 fc f7 e0 f5 07 20 9d
       127 -12 52 -101 39 -45 -64 -52 -40 -4 -9 -32 -11 7 32 -99
000060 0a 06 00 34 09 e9 31 dc f5 09 dc 32 d8 d5 22 af
       10 6 0 52 9 -23 49 -36 -11 9 -36 50 -40 -43 34 -81
000070 05 e0 fe 20 f1 ff d6 15 fb 22 96 dd 03 14 f2 e6
       5 -32 -2 32 -15 -1 -42 21 -5 34 -106 -35 3 20 -14 -26
000080 c3 7f fe 02 69 dc 37 4a 18 e7 b9 10 13 a4 5b 30
       -61 127 -2 2 105 -36 55 74 24 -25 -71 16 19 -92 91 48
000090 c3 2a 4d 78 5d db e3 81 18 18 db 16 fb 28 3d 26
       -61 42 77 120 93 -37 -29 -127 24 24 -37 22 -5 40 61 38
0000a0 e9 00 5c 54 d0 11 09 0b db a1 97 ac 2d f5 f0 10
       -23 0 92 84 -48 17 9 11 -37 -95 -105 -84 45 -11 -16 16
0000b0 c3 d2 7b 97 ea e0 2e 49 9d bb e9 b5 27 c2 49 17
       -61 -46 123 -105 -22 -32 46 73 -99 -69 -23 -75 39 -62 73 23
0000c0 17 06 f7 1d 23 1c b9 f3 52 08 da 06 15 c5 e8 3c
       23 6 -9 29 35 28 -71 -13 82 8 -38 6 21 -59 -24 60
0000d0 c8 b7 1e 05 4d b2 94 de f8 2d f4 46 9e dd 57 7a
       -56 -73 30 5 77 -78 -108 -34 -8 45 -12 70 -98 -35 87 122
0000e0 21 19 f9 7f 21 04 fe e8 0b e0 dc 44 d1 67 05 16
       33 25 -7 127 33 4 -2 -24 11 -32 -36 68 -47 103 5 22
0000f0 4e dd cd 16 49 f6 dd 08 e1 97 16 5b e1 e7 5d 67
       78 -35 -51 22 73 -10 -35 8 -31 -105 22 91 -31 -25 93 103

model/conv2d_17/Conv2D i1 [48, 1, 1, 8]
000000 7f a1 96 c0 42 10 50 3a f9 1f 7f 19 fd 0b 27 c0
       127 -95 -106 -64 66 16 80 58 -7 31 127 25 -3 11 39 -64
000010 44 81 f0 0e c5 fd 30 15 30 0a 32 f3 f3 7f 35 02
       68 -127 -16 14 -59 -3 48 21 48 10 50 -13 -13 127 53 2
000020 46 16 11 7f 04 25 e8 ef e8 de 81 e2 b9 04 eb 4c
       70 22 17 127 4 37 -24 -17 -24 -34 -127 -30 -71 4 -21 76
000030 ac fb d6 7f d2 8e 19 e3 bb d2 cc 7f 0e e2 33 ce
       -84 -5 -42 127 -46 -114 25 -29 -69 -46 -52 127 14 -30 51 -50
000040 3b 0c 46 97 c3 81 aa 52 81 6a ee 01 7c 24 c3 60
       59 12 70 -105 -61 -127 -86 82 -127 106 -18 1 124 36 -61 96
000050 09 93 ff 7f fb ea 0b e7 e8 7f 12 7a 00 eb e8 51
       9 -109 -1 127 -5 -22 11 -25 -24 127 18 122 0 -21 -24 81
000060 00 7f 00 21 e6 18 05 24 2a 8d 9e 35 81 fe eb 6e
       0 127 0 33 -26 24 5 36 42 -115 -98 53 -127 -2 -21 110
000070 d2 81 e2 d1 f9 2b 1e 5c 0f 7f ec 6b 11 d4 ee 49
       -46 -127 -30 -47 -7 43 30 92 15 127 -20 107 17 -44 -18 73
000080 81 d9 7b a6 56 e0 44 f6 3b e8 b1 32 81 00 fb 15
       -127 -39 123 -90 86 -32 68 -10 59 -24 -79 50 -127 0 -5 21
000090 15 e7 c7 6c dc 1e 16 7f d5 cc e3 7f 19 f5 16 cc
       21 -25 -57 108 -36 30 22 127 -43 -52 -29 127 25 -11 22 -52
0000a0 ff ad 0f 81 0c 05 25 d4 81 b3 a1 4a 1c f1 59 92
       -1 -83 15 -127 12 5 37 -44 -127 -77 -95 74 28 -15 89 -110
0000b0 7f 95 45 71 97 00 26 9a e5 1e a4 42 81 3e db e8
       127 -107 69 113 -105 0 38 -102 -27 30 -92 66 -127 62 -37 -24
0000c0 26 d4 bd 81 ba ae 4b 9b 06 55 7f d8 42 ca 2b 9f
       38 -44 -67 -127 -70 -82 75 -101 6 85 127 -40 66 -54 43 -97
0000d0 e9 cc b3 48 fc fc 31 81 f5 7f dc 49 df 88 1c 24
       -23 -52 -77 72 -4 -4 49 -127 -11 127 -36 73 -33 -120 28 36
0000e0 eb 12 58 7f fe dc fa 21 7d 7f 45 d2 ce 1b bb 58
       -21 18 88 127 -2 -36 -6 33 125 127 69 -46 -50 27 -69 88
0000f0 81 3a ac 66 03 a8 56 2b 7f c9 14 59 9c eb 07 90
       -127 58 -84 102 3 -88 86 43 127 -55 20 89 -100 -21 7 -112

model/batch_normalization_26/FusedBatchNormV3;model/depthwise_conv2d_8/depthwise;model/conv2d_48/Conv2D i1 [1, 3, 3, 48]
000000 f8 0b 15 06 fb fe f0 0b 25 fa f9 1d f4 04 f4 fe
       -8 11 21 6 -5 -2 -16 11 37 -6 -7 29 -12 4 -12 -2
000010 02 0c 02 07 fe fa 0e fd f3 0d ff e5 fc 0b 1e c7
       2 12 2 7 -2 -6 14 -3 -13 13 -1 -27 -4 11 30 -57
000020 04 f9 02 f6 05 02 ff 06 0e f3 f9 fa 19 ee 05 27
       4 -7 2 -10 5 2 -1 6 14 -13 -7 -6 25 -18 5 39
000030 35 e7 02 c6 d4 ee d0 e4 7f db 06 12 f5 ef ba e0
       53 -25 2 -58 -44 -18 -48 -28 127 -37 6 18 -11 -17 -70 -32
000040 fe 60 2d 36 59 b6 3f 22 bd 18 fa d2 0f 15 59 81
       -2 96 45 54 89 -74 63 34 -67 24 -6 -46 15 21 89 -127
000050 0b 50 cf 07 31 f2 ff 3e c2 44 73 02 ee ad 32 6f
       11 80 -49 7 49 -14 -1 62 -62 68 115 2 -18 -83 50 111
000060 c2 e8 e4 fb e7 db f0 03 40 fa f1 1b 0a f5 22 00
       -62 -24 -28 -5 -25 -37 -16 3 64 -6 -15 27 10 -11 34 0
000070 e3 c7 fb 1c ed f2 2e e3 e2 0d 0d d8 0d fb 00 cd
       -29 -57 -5 28 -19 -14 46 -29 -30 13 13 -40 13 -5 0 -51
000080 04 00 11 f8 ff 09 fb f1 dd fd 05 e8 11 f1 29 26
       4 0 17 -8 -1 9 -5 -15 -35 -3 5 -24 17 -15 41 38
000090 ea 16 f1 0b f3 eb f2 7f 01 04 e8 c3 ea db c2 fe
       -22 22 -15 11 -13 -21 -14 127 1 4 -24 -61 -22 -37 -62 -2
0000a0 08 44 32 fe 14 08 ae 05 fc 0f 7f 08 fa 7f d9 e6
       8 68 50 -2 20 8 -82 5 -4 15 127 8 -6 127 -39 -26
0000b0 e6 f2 05 fa e4 02 11 21 1e 01 0c e7 f2 f3 15 f8
       -26 -14 5 -6 -28 2 17 33 30 1 12 -25 -14 -13 21 -8
0000c0 8c 7f be 0e 7f ab 81 e9 de ef 7f 7f 93 45 81 7f
       -116 127 -66 14 127 -85 -127 -23 -34 -17 127 127 -109 69 -127 127
0000d0 b4 7f 7f 2a d4 db ed f9 de 7f 87 27 05 dc 59 88
       -76 127 127 42 -44 -37 -19 -7 -34 127 -121 39 5 -36 89 -120
0000e0 81 51 cb 81 7f 93 7f 7f 70 7f 7f 7f 7f 7f 7f 81
       -127 81 -53 -127 127 -109 127 127 112 127 127 127 127 127 127 -127
0000f0 46 a1 2d 0b 1c ab e5 99 f4 f5 fd c5 7f 7f c0 fc
       70 -95 45 11 28 -85 -27 -103 -12 -11 -3 -59 127 127 -64 -4

model/conv2d_18/Conv2D i1 [16, 1, 1, 48]
000000 e9 2b fa 6a 0c 27 e4 e3 f5 4e ef 0c e0 0c ee f2
       -23 43 -6 106 12 39 -28 -29 -11 78 -17 12 -32 12 -18 -14
000010 fa e3 bd 0f 07 81 01 47 25 fc c0 ff ee e4 22 57
       -6 -29 -67 15 7 -127 1 71 37 -4 -64 -1 -18 -28 34 87
000020 fa b2 24 2a b2 eb 14 fa e2 ce eb d3 dc 08 34 ea
       -6 -78 36 42 -78 -21 20 -6 -30 -50 -21 -45 -36 8 52 -22
000030 18 20 eb d9 f2 db fe 19 34 f1 14 1d fa 1c 11 b6
       24 32 -21 -39 -14 -37 -2 25 52 -15 20 29 -6 28 17 -74
000040 ee 13 e4 f8 fa d3 20 b0 b8 0e fe ed dc 2b 5a 25
       -18 19 -28 -8 -6 -45 32 -80 -72 14 -2 -19 -36 43 90 37
000050 ef df cb 3e 05 d0 d6 02 3a c9 31 4c c5 f0 7f e5
       -17 -33 -53 62 5 -48 -42 2 58 -55 49 76 -59 -16 127 -27
000060 0f 47 f8 e4 4f 9f 45 07 23 06 33 4a fa 48 ca e0
       15 71 -8 -28 79 -97 69 7 35 6 51 74 -6 72 -54 -32
000070 f0 3b cb 00 e7 02 f5 06 71 32 03 ce 49 30 f9 18
       -16 59 -53 0 -25 2 -11 6 113 50 3 -50 73 48 -7 24
000080 e2 51 bf 07 0d 0b 08 28 1e f6 81 0b 1a 0c 22 1f
       -30 81 -65 7 13 11 8 40 30 -10 -127 11 26 12 34 31
000090 d2 f6 1e ed fd 0d 12 92 f2 0c 3f f0 fb 0f ee 01
       -46 -10 30 -19 -3 13 18 -110 -14 12 63 -16 -5 15 -18 1
0000a0 02 e6 36 23 fc cc 11 1b dd 0c b7 de d3 c2 4c 04
       2 -26 54 35 -4 -52 17 27 -35 12 -73 -34 -45 -62 76 4
0000b0 2c 6d 02 b4 f7 8c 3b e4 2a 00 cc 5e 1e 7f 1c 0a
       44 109 2 -76 -9 -116 59 -28 42 0 -52 94 30 127 28 10
0000c0 05 e8 1a f3 9c 12 25 fd fa 05 b0 38 17 db 16 e1
       5 -24 26 -13 -100 18 37 -3 -6 5 -80 56 23 -37 22 -31
0000d0 0e e8 15 ff f4 e3 ff d5 1f e7 10 ca b7 eb 14 36
       14 -24 21 -1 -12 -29 -1 -43 31 -25 16 -54 -73 -21 20 54
0000e0 28 f6 c7 cf 2e ee e0 06 70 35 81 c9 b4 f2 db 06
       40 -10 -57 -49 46 -18 -32 6 112 53 -127 -55 -76 -14 -37 6
0000f0 4a 3a e7 b2 24 30 9d c7 e5 e2 f6 f6 a7 2e 62 03
       74 58 -25 -78 36 48 -99 -57 -27 -30 -10 -10 -89 46 98 3

model/conv2d_19/Conv2D i1 [96, 1, 1, 16]
000000 39 ef 47 86 7a 7d ce ec fd bd a1 43 37 7f 76 72
       57 -17 71 -122 122 125 -50 -20 -3 -67 -95 67 55 127 118 114
000010 c1 d4 41 b1 d1 98 d6 0c 0f 16 18 7f d3 4e aa 46
       -63 -44 65 -79 -47 -104 -42 12 15 22 24 127 -45 78 -86 70
000020 b6 17 11 d9 fb 07 e5 26 da 41 d5 f4 24 57 c7 7f
       -74 23 17 -39 -5 7 -27 38 -38 65 -43 -12 36 87 -57 127
000030 ef bc 7f ad 4e f2 f1 5b 1c 4b 9e f9 b9 46 9e f0
       -17 -68 127 -83 78 -14 -15 91 28 75 -98 -7 -71 70 -98 -16
000040 be 21 be 81 e1 20 af 95 eb 09 10 8e d6 aa e8 3e
       -66 33 -66 -127 -31 32 -81 -107 -21 9 16 -114 -42 -86 -24 62
000050 f1 7f e9 d9 14 34 fc e4 22 3f c2 26 17 f4 ae cb
       -15 127 -23 -39 20 52 -4 -28 34 63 -62 38 23 -12 -82 -53
000060 da b2 b8 1a b7 f4 fb 81 fc f4 75 c0 01 bf 0a ad
       -38 -78 -72 26 -73 -12 -5 -127 -4 -12 117 -64 1 -65 10 -83
000070 bd f3 84 48 63 30 54 da 30 1c 04 5b cc 3d 73 81
       -67 -13 -124 72 99 48 84 -38 48 28 4 91 -52 61 115 -127
000080 37 2f d0 06 ef 7f 21 1d ec f7 ea b6 44 a6 12 9c
       55 47 -48 6 -17 127 33 29 -20 -9 -22 -74 68 -90 18 -100
000090 14 21 b8 08 e0 47 cf 83 f4 2a 29 4e db f6 27 81
       20 33 -72 8 -32 71 -49 -125 -12 42 41 78 -37 -10 39 -127
0000a0 f6 94 bf 9a b9 f7 50 3a 14 f7 b3 f4 e3 7f f9 ec
       -10 -108 -65 -102 -71 -9 80 58 20 -9 -77 -12 -29 127 -7 -20
0000b0 dd ed 26 df cb 7f cb 14 2f ae 19 17 16 46 09 1e
       -35 -19 38 -33 -53 127 -53 20 47 -82 25 23 22 70 9 30
0000c0 2d df 12 df 7f 96 ef 3d fe fd 2d 0c e3 b2 c7 01
       45 -33 18 -33 127 -106 -17 61 -2 -3 45 12 -29 -78 -57 1
0000d0 81 df 23 ab 38 10 f7 c2 d8 df df 89 11 1b c2 42
       -127 -33 35 -85 56 16 -9 -62 -40 -33 -33 -119 17 27 -62 66
0000e0 7f 1c a3 76 ce 51 d3 ee ae 27 f5 c0 cc ca 57 8a
       127 28 -93 118 -50 81 -45 -18 -82 39 -11 -64 -52 -54 87 -118
0000f0 eb e7 35 c8 d2 be ed 17 1a fe a8 13 13 ff 44 81
       -21 -25 53 -56 -46 -66 -19 23 26 -2 -88 19 19 -1 68 -127

model/batch_normalization_29/FusedBatchNormV3;model/depthwise_conv2d_9/depthwise;model/conv2d_51/Conv2D i1 [1, 3, 3, 96]
000000 4b b7 a8 48 e5 05 f9 e8 fb 05 3e ff 82 f8 79 23
       75 -73 -88 72 -27 5 -7 -24 -5 5 62 -1 -126 -8 121 35
000010 13 10 40 89 26 cb 1f 7b 14 f6 02 1b 0a d9 ae f6
       19 16 64 -119 38 -53 31 123 20 -10 2 27 10 -39 -82 -10
000020 b2 e3 db 30 92 1a 7f fd 7f 2a 81 c4 fa 1f d7 7f
       -78 -29 -37 48 -110 26 127 -3 127 42 -127 -60 -6 31 -41 127
000030 99 11 34 ed 44 c0 5b 32 fa 0b f1 de a5 dc f0 f8
       -103 17 52 -19 68 -64 91 50 -6 11 -15 -34 -91 -36 -16 -8
000040 21 4e 25 58 fd 7f e4 d2 1c d8 19 a6 4c cf e8 fd
       33 78 37 88 -3 127 -28 -46 28 -40 25 -90 76 -49 -24 -3
000050 cf 26 ff e5 3c dd 23 0c f1 b8 5c f6 fa 5d fc 3b
       -49 38 -1 -27 60 -35 35 12 -15 -72 92 -10 -6 93 -4 59
000060 72 0c 50 1e cf f1 fa cc 1f 95 f5 ea 95 02 81 81
       114 12 80 30 -49 -15 -6 -52 31 -107 -11 -22 -107 2 -127 -127
000070 03 4d 33 b4 81 6c 7f 7f 36 26 f9 18 01 7f df 81
       3 77 51 -76 -127 108 127 127 54 38 -7 24 1 127 -33 -127
000080 64 7f 93 38 9e 7f 51 28 10 4f 30 b7 81 b1 81 59
       100 127 -109 56 -98 127 81 40 16 79 48 -73 -127 -79 -127 89
000090 02 7f 7f f1 ea a9 a7 7f 0c 0b 7f 31 cf 81 7f eb
       2 127 127 -15 -22 -87 -89 127 12 11 127 49 -49 -127 127 -21
0000a0 e5 7f 41 51 2a 7e 4e f8 cf 44 81 10 7c 81 00 cc
       -27 127 65 81 42 126 78 -8 -49 68 -127 16 124 -127 0 -52
0000b0 76 7f 01 7f 7f ad dc 48 b3 89 55 b2 dc 6b 46 85
       118 127 1 127 127 -83 -36 72 -77 -119 85 -78 -36 107 70 -123
0000c0 20 a9 53 43 74 11 f7 16 f4 03 63 02 81 d5 14 10
       32 -87 83 67 116 17 -9 22 -12 3 99 2 -127 -43 20 16
0000d0 1e 14 39 8b 52 7f 30 be 14 dc d5 1d 48 07 f8 ee
       30 20 57 -117 82 127 48 -66 20 -36 -43 29 72 7 -8 -18
0000e0 e7 2e d9 26 97 15 75 e2 f0 37 19 c3 d9 22 9b c5
       -25 46 -39 38 -105 21 117 -30 -16 55 25 -61 -39 34 -101 -59
0000f0 55 07 2c 08 48 f9 a7 2f c6 20 3f f3 c6 68 fc 01
       85 7 44 8 72 -7 -89 47 -58 32 63 -13 -58 104 -4 1

model/conv2d_20/Conv2D i1 [16, 1, 1, 96]
000000 ac 68 da 72 b6 c5 0e bb 0f e3 e5 29 d6 cd 28 1c
       -84 104 -38 114 -74 -59 14 -69 15 -29 -27 41 -42 -51 40 28
000010 1c bb dd b9 f8 5d 2b d0 a8 1b 04 00 d1 f1 0a be
       28 -69 -35 -71 -8 93 43 -48 -88 27 4 0 -47 -15 10 -66
000020 ea 12 f1 06 02 f1 c2 44 d6 e5 b3 34 eb f6 ea e5
       -22 18 -15 6 2 -15 -62 68 -42 -27 -77 52 -21 -10 -22 -27
000030 1e a8 78 7d 8e d2 02 b3 c7 10 e9 e3 12 d5 f9 6a
       30 -88 120 125 -114 -46 2 -77 -57 16 -23 -29 18 -43 -7 106
000040 41 f8 35 19 04 30 a9 cf 01 d4 4b de 9c 8b 20 c4
       65 -8 53 25 4 48 -87 -49 1 -44 75 -34 -100 -117 32 -60
000050 fe 0d f1 9e 0e 0e 4d 34 fd 39 47 7f 3c 38 06 1b
       -2 13 -15 -98 14 14 77 52 -3 57 71 127 60 56 6 27
000060 f4 40 20 4b 4d e2 08 38 36 57 20 62 4a ce 2a ff
       -12 64 32 75 77 -30 8 56 54 87 32 98 74 -50 42 -1
000070 6a 0e d7 f4 5d 28 87 34 cd e2 cf 00 e3 d6 ad 0e
       106 14 -41 -12 93 40 -121 52 -51 -30 -49 0 -29 -42 -83 14
000080 b7 04 36 a1 fe 0d 55 e5 e3 40 cf fb d5 49 04 22
       -73 4 54 -95 -2 13 85 -27 -29 64 -49 -5 -43 73 4 34
000090 27 b7 dd 60 48 08 24 bd 56 e9 ca 02 ab 54 c7 74
       39 -73 -35 96 72 8 36 -67 86 -23 -54 2 -85 84 -57 116
0000a0 dd 4d 14 4c 2f f4 19 e4 a9 60 81 11 bc 2c 1e d0
       -35 77 20 76 47 -12 25 -28 -87 96 -127 17 -68 44 30 -48
0000b0 72 e6 19 19 33 ef 05 b7 f9 a4 eb 6b af 21 98 87
       114 -26 25 25 51 -17 5 -73 -7 -92 -21 107 -81 33 -104 -121
0000c0 c9 2c e2 3f 57 22 d0 3b bd 07 e5 02 c9 0c aa 42
       -55 44 -30 63 87 34 -48 59 -67 7 -27 2 -55 12 -86 66
0000d0 d4 df 7c 0a 03 3e b6 da 04 b2 e2 02 1d 40 2a f2
       -44 -33 124 10 3 62 -74 -38 4 -78 -30 2 29 64 42 -14
0000e0 cf c9 a5 e3 c3 29 04 c3 f9 db 31 e8 01 16 81 22
       -49 -55 -91 -29 -61 41 4 -61 -7 -37 49 -24 1 22 -127 34
0000f0 b7 f3 34 13 32 13 f0 d2 05 2c fa fa 38 e8 0b ea
       -73 -13 52 19 50 19 -16 -46 5 44 -6 -6 56 -24 11 -22

model/conv2d_21/Conv2D i1 [96, 1, 1, 16]
000000 fe 61 1f 81 11 17 d6 48 7b 50 08 14 01 e1 d3 fb
       -2 97 31 -127 17 23 -42 72 123 80 8 20 1 -31 -45 -5
000010 f8 e1 0d 1d 27 e5 98 b0 81 35 f0 bb 2c ca e3 62
       -8 -31 13 29 39 -27 -104 -80 -127 53 -16 -69 44 -54 -29 98
000020 41 c7 d1 2d 20 7f db ec aa bc c2 c6 c6 07 36 fd
       65 -57 -47 45 32 127 -37 -20 -86 -68 -62 -58 -58 7 54 -3
000030 dc ce 02 b6 a9 6b e4 6d 3c 81 df f3 27 e6 b1 de
       -36 -50 2 -74 -87 107 -28 109 60 -127 -33 -13 39 -26 -79 -34
000040 84 63 4b a3 95 f9 f8 0b 5d 21 f6 fd 75 7f a1 b4
       -124 99 75 -93 -107 -7 -8 11 93 33 -10 -3 117 127 -95 -76
000050 fb 55 9c 0b 38 0d 81 7f 5e fc e0 fd 44 2a e9 15
       -5 85 -100 11 56 13 -127 127 94 -4 -32 -3 68 42 -23 21
000060 17 ae 98 8b 97 1e 50 b4 a8 da 28 e6 69 f9 7f 61
       23 -82 -104 -117 -105 30 80 -76 -88 -38 40 -26 105 -7 127 97
000070 48 53 04 71 a8 19 cf 59 c8 6e 81 21 2f 39 d0 fc
       72 83 4 113 -88 25 -49 89 -56 110 -127 33 47 57 -48 -4
000080 f2 27 81 46 cf d3 53 06 ce 4d d4 1b 52 24 ca cd
       -14 39 -127 70 -49 -45 83 6 -50 77 -44 27 82 36 -54 -51
000090 09 d3 07 e4 04 c2 d1 05 e7 e7 04 09 26 d1 14 81
       9 -45 7 -28 4 -62 -47 5 -25 -25 4 9 38 -47 20 -127
0000a0 f9 32 05 6d dc 2a fc eb 14 fb d4 e5 81 ac f0 fc
       -7 50 5 109 -36 42 -4 -21 20 -5 -44 -27 -127 -84 -16 -4
0000b0 2d 72 fa 4d 77 6a 0d 01 50 36 cc d2 0c 81 37 cc
       45 114 -6 77 119 106 13 1 80 54 -52 -46 12 -127 55 -52
0000c0 a4 31 7a 0b b3 0d c6 81 27 4b 21 10 f2 c4 55 e0
       -92 49 122 11 -77 13 -58 -127 39 75 33 16 -14 -60 85 -32
0000d0 85 7f 53 44 54 00 e9 5d 4e 17 10 2c 2a b9 3c c1
       -123 127 83 68 84 0 -23 93 78 23 16 44 42 -71 60 -63
0000e0 cd 73 fe 4c 40 f1 f6 fb 7f 36 f0 1b 39 03 bc ad
       -51 115 -2 76 64 -15 -10 -5 127 54 -16 27 57 3 -68 -83
0000f0 3f f2 d4 7f dd 4e bf c8 25 b8 e8 fc db b7 bf 63
       63 -14 -44 127 -35 78 -65 -56 37 -72 -24 -4 -37 -73 -65 99
