HIMAX_Yolo_Fastest_Person_Detection_Example/yolo_coco.tflite (tflite, 570568 bytes, 84 tensors)

model/conv2d/Conv2D i1 [8, 3, 3, 1]
0	0x10	16
1	0xbd	-67
2	0xdb	-37
3	0x15	21
4	0x81	-127
5	0xed	-19
6	0x0b	11
7	0xc9	-55
8	0x0f	15
9	0x0a	10
10	0xeb	-21
11	0x14	20
12	0xfb	-5
13	0x81	-127
14	0xf5	-11
15	0xde	-34
16	0x88	-120
17	0xd6	-42
18	0xe4	-28
19	0x04	4
20	0xd0	-48
21	0x3d	61
22	0x58	88
23	0x2d	45
24	0x2d	45
25	0x7f	127
26	0x23	35
27	0xe7	-25
28	0x51	81
29	0x54	84
30	0xe8	-24
31	0x7f	127
32	0x32	50
33	0xf6	-10
34	0x3e	62
35	0xec	-20
36	0xfd	-3
37	0x0c	12
38	0x7f	127
39	0xfe	-2
40	0x12	18
41	0x6d	109
42	0xfd	-3
43	0x04	4
44	0x09	9
45	0xfe	-2
46	0x04	4
47	0x82	-126
48	0x00	0
49	0xfc	-4
50	0x81	-127
51	0xf9	-7
52	0x04	4
53	0xe8	-24
54	0x09	9
55	0x08	8
56	0x05	5
57	0xfe	-2
58	0xd1	-47
59	0x04	4
60	0xf0	-16
61	0x81	-127
62	0xfa	-6
63	0xfd	-3
64	0x05	5
65	0xcc	-52
66	0xff	-1
67	0x06	6
68	0x81	-127
69	0xff	-1
70	0x08	8
71	0xf2	-14

model/conv2d_1/Conv2D i1 [8, 1, 1, 8]
0	0xf2	-14
1	0xda	-38
2	0x03	3
3	0xf7	-9
4	0x7f	127
5	0x92	-110
6	0xfb	-5
7	0xbd	-67
8	0xc7	-57
9	0x92	-110
10	0x7f	127
11	0x2e	46
12	0xe1	-31
13	0x15	21
14	0xb7	-73
15	0x08	8
16	0x5b	91
17	0x07	7
18	0x01	1
19	0x1f	31
20	0x01	1
21	0xf9	-7
22	0xec	-20
23	0x7f	127
24	0x12	18
25	0x14	20
26	0xf9	-7
27	0x2a	42
28	0x81	-127
29	0x70	112
30	0x00	0
31	0x6e	110
32	0xaf	-81
33	0x27	39
34	0x5e	94
35	0x0f	15
36	0x06	6
37	0x81	-127
38	0xbd	-67
39	0xf3	-13
40	0x3b	59
41	0x20	32
42	0x00	0
43	0xed	-19
44	0x96	-106
45	0xf0	-16
46	0xd4	-44
47	0x7f	127
48	0x8c	-116
49	0xbe	-66
50	0xdc	-36
51	0x7f	127
52	0x9a	-102
53	0x3c	60
54	0xd1	-47
55	0x11	17
56	0x3f	63
57	0x37	55
58	0x7f	127
59	0x3b	59
60	0x62	98
61	0x5c	92
62	0x3f	63
63	0x22	34

model/conv2d_2/Conv2D i1 [4, 1, 1, 8]
0	0x7f	127
1	0xf0	-16
2	0x0a	10
3	0xfc	-4
4	0x00	0
5	0xfc	-4
6	0x04	4
7	0x01	1
8	0x1d	29
9	0x7f	127
10	0x01	1
11	0x48	72
12	0x00	0
13	0xff	-1
14	0x00	0
15	0xff	-1
16	0x06	6
17	0xea	-22
18	0x03	3
19	0x0a	10
20	0x00	0
21	0xfe	-2
22	0x7f	127
23	0x00	0
24	0xf5	-11
25	0x7f	127
26	0x08	8
27	0xb2	-78
28	0x00	0
29	0x01	1
30	0xfc	-4
31	0xfe	-2

model/conv2d_3/Conv2D i1 [8, 1, 1, 4]
0	0x88	-120
1	0x25	37
2	0xfd	-3
3	0x7f	127
4	0xeb	-21
5	0x71	113
6	0xd8	-40
7	0x7f	127
8	0xf5	-11
9	0x7f	127
10	0x9e	-98
11	0x05	5
12	0x7f	127
13	0x06	6
14	0xef	-17
15	0x16	22
16	0xe1	-31
17	0xe0	-32
18	0xf5	-11
19	0x81	-127
20	0xd8	-40
21	0x07	7
22	0x81	-127
23	0xe3	-29
24	0xf1	-15
25	0x9b	-101
26	0xea	-22
27	0x81	-127
28	0x0d	13
29	0xf1	-15
30	0x81	-127
31	0x0f	15

model/conv2d_4/Conv2D i1 [4, 1, 1, 8]
0	0x67	103
1	0xcc	-52
2	0xff	-1
3	0xad	-83
4	0x17	23
5	0xc3	-61
6	0x02	2
7	0x81	-127
8	0xf7	-9
9	0x16	22
10	0x81	-127
11	0x0f	15
12	0x23	35
13	0xfd	-3
14	0x50	80
15	0x00	0
16	0x9f	-97
17	0x11	17
18	0xce	-50
19	0xba	-70
20	0x2c	44
21	0x48	72
22	0xfd	-3
23	0x81	-127
24	0x3c	60
25	0x76	118
26	0x25	37
27	0x81	-127
28	0x4c	76
29	0x00	0
30	0xef	-17
31	0x16	22

model/conv2d_5/Conv2D i1 [24, 1, 1, 4]
0	0x7f	127
1	0x15	21
2	0x11	17
3	0x0c	12
4	0x81	-127
5	0xee	-18
6	0x05	5
7	0xfc	-4
8	0x7f	127
9	0x7e	126
10	0x60	96
11	0x34	52
12	0x7f	127
13	0xcc	-52
14	0x4a	74
15	0xce	-50
16	0x3d	61
17	0x81	-127
18	0xd8	-40
19	0x2c	44
20	0x02	2
21	0x81	-127
22	0x08	8
23	0x9d	-99
24	0x7f	127
25	0x0e	14
26	0xd5	-43
27	0x16	22
28	0x91	-111
29	0x7f	127
30	0x2c	44
31	0xeb	-21
32	0x02	2
33	0x81	-127
34	0xf0	-16
35	0x1e	30
36	0x7f	127
37	0x13	19
38	0x16	22
39	0x04	4
40	0x7f	127
41	0x6e	110
42	0xa1	-95
43	0x15	21
44	0xe1	-31
45	0x7f	127
46	0xf6	-10
47	0xce	-50
48	0x76	118
49	0x81	-127
50	0xc9	-55
51	0x12	18
52	0x99	-103
53	0x81	-127
54	0x2c	44
55	0x02	2
56	0x81	-127
57	0x89	-119
58	0xdd	-35
59	0xf7	-9
60	0x09	9
61	0x81	-127
62	0xed	-19
63	0x8f	-113
64	0x7f	127
65	0x77	119
66	0xcd	-51
67	0x1f	31
68	0xdf	-33
69	0x7f	127
70	0x1c	28
71	0xe9	-23
72	0x81	-127
73	0x26	38
74	0xe9	-23
75	0x23	35
76	0x86	-122
77	0x7f	127
78	0x40	64
79	0xee	-18
80	0x81	-127
81	0x29	41
82	0xdc	-36
83	0x22	34
84	0xc5	-59
85	0x81	-127
86	0x12	18
87	0x07	7
88	0xbf	-65
89	0x81	-127
90	0x0c	12
91	0x08	8
92	0xa0	-96
93	0x2e	46
94	0x7f	127
95	0xfe	-2

model/conv2d_6/Conv2D i1 [8, 1, 1, 24]
0	0x0b	11
1	0x28	40
2	0x08	8
3	0x1a	26
4	0x14	20
5	0x8e	-114
6	0x09	9
7	0x2b	43
8	0x18	24
9	0xfb	-5
10	0x3c	60
11	0x81	-127
12	0x11	17
13	0x37	55
14	0xe3	-29
15	0x65	101
16	0x27	39
17	0x1e	30
18	0xce	-50
19	0x20	32
20	0xd0	-48
21	0x15	21
22	0x1e	30
23	0x11	17
24	0x0a	10
25	0x52	82
26	0x64	100
27	0x16	22
28	0xc7	-57
29	0xd6	-42
30	0x1f	31
31	0x52	82
32	0x81	-127
33	0x0d	13
34	0xe7	-25
35	0x2b	43
36	0x47	71
37	0x99	-103
38	0x06	6
39	0x04	4
40	0xca	-54
41	0xb1	-79
42	0x4f	79
43	0x2a	42
44	0x4a	74
45	0x87	-121
46	0xa0	-96
47	0xdd	-35
48	0x06	6
49	0x30	48
50	0x81	-127
51	0xda	-38
52	0xe7	-25
53	0x1a	26
54	0xf7	-9
55	0x02	2
56	0xf2	-14
57	0x08	8
58	0x20	32
59	0xf4	-12
60	0x03	3
61	0x31	49
62	0x36	54
63	0xde	-34
64	0x28	40
65	0xeb	-21
66	0x1a	26
67	0xf3	-13
68	0x17	23
69	0x0c	12
70	0x35	53
71	0x0e	14
72	0xcd	-51
73	0xdf	-33
74	0x9d	-99
75	0xbd	-67
76	0x98	-104
77	0xd9	-39
78	0x3f	63
79	0x81	-127
80	0xbb	-69
81	0xe0	-32
82	0xf3	-13
83	0x0a	10
84	0x93	-109
85	0x03	3
86	0xea	-22
87	0x21	33
88	0xf7	-9
89	0xa4	-92
90	0xc5	-59
91	0xa1	-95
92	0xc6	-58
93	0xe7	-25
94	0xf4	-12
95	0x26	38
96	0xd9	-39
97	0xaf	-81
98	0x0e	14
99	0x3d	61
100	0xc4	-60
101	0x09	9
102	0x1d	29
103	0x10	16
104	0xb0	-80
105	0xd6	-42
106	0x14	20
107	0x81	-127
108	0x0f	15
109	0x19	25
110	0x1e	30
111	0xcf	-49
112	0x16	22
113	0xbb	-69
114	0x1e	30
115	0x00	0
116	0x1f	31
117	0xc8	-56
118	0xff	-1
119	0x66	102
120	0x06	6
121	0x16	22
122	0xe2	-30
123	0x7f	127
124	0x24	36
125	0xe7	-25
126	0xdf	-33
127	0x01	1
128	0x22	34
129	0x09	9
130	0xdb	-37
131	0xe2	-30
132	0x08	8
133	0xf9	-7
134	0xf2	-14
135	0x21	33
136	0xf0	-16
137	0x10	16
138	0x05	5
139	0xf2	-14
140	0x04	4
141	0xed	-19
142	0xde	-34
143	0x0c	12
144	0x10	16
145	0xdb	-37
146	0xf6	-10
147	0x36	54
148	0x14	20
149	0xaa	-86
150	0xec	-20
151	0x45	69
152	0xfa	-6
153	0x17	23
154	0x04	4
155	0x45	69
156	0x31	49
157	0x17	23
158	0xfe	-2
159	0x43	67
160	0x17	23
161	0x09	9
162	0x09	9
163	0x3b	59
164	0x09	9
165	0xde	-34
166	0xfa	-6
167	0x7f	127
168	0xab	-85
169	0xd1	-47
170	0x01	1
171	0x09	9
172	0x09	9
173	0xf3	-13
174	0x7f	127
175	0x35	53
176	0xf2	-14
177	0xb6	-74
178	0x19	25
179	0x30	48
180	0x2b	43
181	0xd3	-45
182	0xee	-18
183	0xfc	-4
184	0xdd	-35
185	0x03	3
186	0x0f	15
187	0x2a	42
188	0x11	17
189	0x05	5
190	0xec	-20
191	0xeb	-21

model/conv2d_7/Conv2D i1 [32, 1, 1, 8]
0	0x00	0
1	0x7a	122
2	0x4c	76
3	0x7f	127
4	0x87	-121
5	0x08	8
6	0x2d	45
7	0x67	103
8	0x46	70
9	0xdc	-36
10	0xe3	-29
11	0xeb	-21
12	0x1e	30
13	0x81	-127
14	0x5a	90
15	0xe4	-28
16	0x39	57
17	0x12	18
18	0x7f	127
19	0xf9	-7
20	0x84	-124
21	0xc6	-58
22	0x3a	58
23	0xd3	-45
24	0xb0	-80
25	0x9e	-98
26	0xc6	-58
27	0xfd	-3
28	0x4c	76
29	0x1d	29
30	0x5f	95
31	0x7f	127
32	0x18	24
33	0x30	48
34	0x01	1
35	0xe4	-28
36	0x7f	127
37	0x50	80
38	0x5c	92
39	0x3f	63
40	0xff	-1
41	0x0a	10
42	0x0d	13
43	0xff	-1
44	0x7f	127
45	0x0d	13
46	0xac	-84
47	0xf1	-15
48	0x13	19
49	0x39	57
50	0x81	-127
51	0xda	-38
52	0x65	101
53	0xad	-83
54	0xbb	-69
55	0xcf	-49
56	0xe4	-28
57	0xff	-1
58	0xf6	-10
59	0x03	3
60	0xe2	-30
61	0xe3	-29
62	0x7f	127
63	0xe6	-26
64	0x81	-127
65	0xb9	-71
66	0x5c	92
67	0x12	18
68	0x5e	94
69	0xf0	-16
70	0xd0	-48
71	0x50	80
72	0x5a	90
73	0x81	-127
74	0xa6	-90
75	0xb5	-75
76	0x48	72
77	0x09	9
78	0xc0	-64
79	0xa1	-95
80	0xe3	-29
81	0x01	1
82	0xf1	-15
83	0x7f	127
84	0x0c	12
85	0xff	-1
86	0x6d	109
87	0x19	25
88	0x40	64
89	0x7f	127
90	0x99	-103
91	0xd2	-46
92	0x12	18
93	0x08	8
94	0x35	53
95	0x16	22
96	0x74	116
97	0x37	55
98	0x7f	127
99	0x9e	-98
100	0x11	17
101	0x28	40
102	0xf4	-12
103	0x23	35
104	0x7b	123
105	0xd8	-40
106	0xea	-22
107	0x5b	91
108	0x7f	127
109	0xd9	-39
110	0xe8	-24
111	0x0a	10
112	0x02	2
113	0xc9	-55
114	0xce	-50
115	0xca	-54
116	0x81	-127
117	0xcd	-51
118	0xce	-50
119	0xfd	-3
120	0x81	-127
121	0x0b	11
122	0x19	25
123	0xd1	-47
124	0xa7	-89
125	0xd2	-46
126	0xe4	-28
127	0x03	3
128	0xdb	-37
129	0x38	56
130	0xb1	-79
131	0x23	35
132	0x81	-127
133	0xe9	-23
134	0x85	-123
135	0xbc	-68
136	0x81	-127
137	0xab	-85
138	0xca	-54
139	0x35	53
140	0x24	36
141	0x0c	12
142	0x75	117
143	0xd2	-46
144	0x07	7
145	0x7f	127
146	0xb2	-78
147	0xd7	-41
148	0xfa	-6
149	0x24	36
150	0x22	34
151	0x09	9
152	0xbc	-68
153	0xce	-50
154	0xc7	-57
155	0x7f	127
156	0xed	-19
157	0xd9	-39
158	0xa1	-95
159	0xc8	-56
160	0x3b	59
161	0x2f	47
162	0xce	-50
163	0x11	17
164	0x19	25
165	0xcd	-51
166	0xc8	-56
167	0x81	-127
168	0xad	-83
169	0xef	-17
170	0x37	55
171	0x3c	60
172	0xc4	-60
173	0x35	53
174	0x7f	127
175	0xdb	-37
176	0x81	-127
177	0xc2	-62
178	0x43	67
179	0xd8	-40
180	0x28	40
181	0x27	39
182	0x39	57
183	0x4a	74
184	0xd0	-48
185	0x87	-121
186	0x7f	127
187	0x65	101
188	0x12	18
189	0xf8	-8
190	0xb5	-75
191	0xfb	-5
192	0x7a	122
193	0xe4	-28
194	0xcd	-51
195	0x6b	107
196	0x7f	127
197	0x2a	42
198	0x40	64
199	0xf2	-14
200	0x04	4
201	0x0b	11
202	0xc6	-58
203	0x92	-110
204	0x2d	45
205	0x52	82
206	0x91	-111
207	0x7f	127
208	0xcb	-53
209	0x81	-127
210	0xc0	-64
211	0x99	-103
212	0xbe	-66
213	0xf6	-10
214	0xc5	-59
215	0x2b	43
216	0x22	34
217	0x09	9
218	0xd9	-39
219	0x00	0
220	0x4b	75
221	0x1f	31
222	0x81	-127
223	0xf3	-13
224	0xef	-17
225	0xc2	-62
226	0x7f	127
227	0x6e	110
228	0xef	-17
229	0x89	-119
230	0xa5	-91
231	0xaf	-81
232	0xf4	-12
233	0x7f	127
234	0x0d	13
235	0xa4	-92
236	0xe4	-28
237	0x22	34
238	0x1f	31
239	0x2d	45
240	0xc0	-64
241	0x30	48
242	0xef	-17
243	0xec	-20
244	0x81	-127
245	0xd4	-44
246	0x9f	-97
247	0x95	-107
248	0x35	53
249	0x07	7
250	0x36	54
251	0x34	52
252	0xd9	-39
253	0xdb	-37
254	0x81	-127
255	0x43	67

model/conv2d_8/Conv2D i1 [8, 1, 1, 32]
0	0x26	38
1	0xcb	-53
2	0x41	65
3	0xf8	-8
4	0xc6	-58
5	0xda	-38
6	0x4b	75
7	0x47	71
8	0xd4	-44
9	0x9f	-97
10	0x8a	-118
11	0xff	-1
12	0x34	52
13	0xfa	-6
14	0x5e	94
15	0x54	84
16	0x3d	61
17	0x53	83
18	0xfe	-2
19	0xee	-18
20	0x1f	31
21	0xe8	-24
22	0x10	16
23	0xd2	-46
24	0x67	103
25	0x2a	42
26	0x51	81
27	0x18	24
28	0x1e	30
29	0x12	18
30	0x7f	127
31	0x57	87
32	0x9b	-101
33	0x0d	13
34	0x15	21
35	0x3f	63
36	0xde	-34
37	0x12	18
38	0xf5	-11
39	0x2e	46
40	0x0f	15
41	0xff	-1
42	0xa3	-93
43	0xfa	-6
44	0x17	23
45	0x03	3
46	0x52	82
47	0xe4	-28
48	0xc7	-57
49	0x0c	12
50	0x81	-127
51	0xdf	-33
52	0x31	49
53	0xc7	-57
54	0x4d	77
55	0xf8	-8
56	0xb3	-77
57	0x1a	26
58	0x4f	79
59	0x12	18
60	0xf0	-16
61	0xc5	-59
62	0x0b	11
63	0x04	4
64	0x1b	27
65	0x4e	78
66	0x8e	-114
67	0x2e	46
68	0x32	50
69	0xc0	-64
70	0x81	-127
71	0x1e	30
72	0xf2	-14
73	0xc8	-56
74	0x9f	-97
75	0x72	114
76	0x1f	31
77	0x02	2
78	0xfd	-3
79	0xb7	-73
80	0x36	54
81	0x37	55
82	0xf3	-13
83	0x16	22
84	0xb4	-76
85	0x0e	14
86	0x96	-106
87	0x4c	76
88	0xe7	-25
89	0xb8	-72
90	0x48	72
91	0xbe	-66
92	0xa6	-90
93	0x32	50
94	0xf6	-10
95	0x10	16
96	0x09	9
97	0x18	24
98	0xf9	-7
99	0xd6	-42
100	0x0f	15
101	0xe3	-29
102	0xf8	-8
103	0xc7	-57
104	0xbb	-69
105	0x04	4
106	0x14	20
107	0x14	20
108	0xfb	-5
109	0x46	70
110	0x3c	60
111	0x35	53
112	0xec	-20
113	0xf6	-10
114	0x34	52
115	0x38	56
116	0x32	50
117	0xe7	-25
118	0x2a	42
119	0xd3	-45
120	0xd3	-45
121	0xd5	-43
122	0x0d	13
123	0xd2	-46
124	0xf4	-12
125	0x7f	127
126	0x07	7
127	0xfe	-2
128	0xdb	-37
129	0xa6	-90
130	0x2e	46
131	0x1c	28
132	0xaa	-86
133	0x55	85
134	0x2a	42
135	0xea	-22
136	0x2a	42
137	0xec	-20
138	0xeb	-21
139	0x25	37
140	0xda	-38
141	0xa5	-91
142	0x26	38
143	0x38	56
144	0x3d	61
145	0x2b	43
146	0x0a	10
147	0xcf	-49
148	0xf1	-15
149	0x87	-121
150	0x30	48
151	0xe8	-24
152	0x99	-103
153	0x11	17
154	0x7f	127
155	0xea	-22
156	0xe6	-26
157	0x09	9
158	0x26	38
159	0x10	16
160	0xce	-50
161	0x50	80
162	0x33	51
163	0xd3	-45
164	0xe8	-24
165	0xe7	-25
166	0xaa	-86
167	0xd6	-42
168	0x31	49
169	0x30	48
170	0xf1	-15
171	0xb3	-77
172	0x1b	27
173	0x12	18
174	0xb1	-79
175	0x56	86
176	0x12	18
177	0x11	17
178	0x42	66
179	0xde	-34
180	0x0e	14
181	0xf1	-15
182	0xee	-18
183	0xe6	-26
184	0x0d	13
185	0xe9	-23
186	0xc0	-64
187	0xd4	-44
188	0x7f	127
189	0xf6	-10
190	0x20	32
191	0xbc	-68
192	0xe1	-31
193	0xb5	-75
194	0xf2	-14
195	0x10	16
196	0x05	5
197	0x98	-104
198	0xcc	-52
199	0x0a	10
200	0x11	17
201	0xe9	-23
202	0x08	8
203	0xdf	-33
204	0x81	-127
205	0xc6	-58
206	0x1d	29
207	0x33	51
208	0x50	80
209	0x3d	61
210	0xf9	-7
211	0xd0	-48
212	0x0e	14
213	0x3b	59
214	0xc3	-61
215	0x10	16
216	0x08	8
217	0x04	4
218	0x52	82
219	0x03	3
220	0x2b	43
221	0xd4	-44
222	0x5d	93
223	0xea	-22
224	0x16	22
225	0xf8	-8
226	0xd2	-46
227	0xed	-19
228	0xb6	-74
229	0xf9	-7
230	0x21	33
231	0x25	37
232	0x09	9
233	0x48	72
234	0x4b	75
235	0xfa	-6
236	0x06	6
237	0x89	-119
238	0x08	8
239	0xfc	-4
240	0xfc	-4
241	0x63	99
242	0xec	-20
243	0x95	-107
244	0x81	-127
245	0x29	41
246	0xd2	-46
247	0x1b	27
248	0xe5	-27
249	0x2a	42
250	0x1d	29
251	0x35	53
252	0x03	3
253	0xee	-18
254	0x13	19
255	0x2b	43

model/conv2d_9/Conv2D i1 [32, 1, 1, 8]
0	0xfd	-3
1	0xea	-22
2	0x09	9
3	0x09	9
4	0xf8	-8
5	0xfe	-2
6	0xe3	-29
7	0x7f	127
8	0xfb	-5
9	0x7f	127
10	0xc4	-60
11	0xb9	-71
12	0x07	7
13	0x13	19
14	0x27	39
15	0x28	40
16	0xc5	-59
17	0xde	-34
18	0xc3	-61
19	0xe5	-27
20	0x3f	63
21	0x81	-127
22	0x77	119
23	0x0c	12
24	0xd5	-43
25	0x2e	46
26	0x81	-127
27	0xe6	-26
28	0x18	24
29	0x02	2
30	0x02	2
31	0x00	0
32	0xdf	-33
33	0xb3	-77
34	0xe2	-30
35	0xcd	-51
36	0x7f	127
37	0xc1	-63
38	0x05	5
39	0xb1	-79
40	0xa9	-87
41	0xe0	-32
42	0x2d	45
43	0x5c	92
44	0xe8	-24
45	0xfa	-6
46	0x81	-127
47	0xe5	-27
48	0x2f	47
49	0x25	37
50	0x0b	11
51	0x6c	108
52	0x61	97
53	0xe6	-26
54	0x81	-127
55	0xb3	-77
56	0x37	55
57	0xbe	-66
58	0xe1	-31
59	0x7f	127
60	0xc8	-56
61	0x0f	15
62	0xbc	-68
63	0x91	-111
64	0xfc	-4
65	0xcf	-49
66	0x3a	58
67	0x38	56
68	0x7f	127
69	0x11	17
70	0x1a	26
71	0x11	17
72	0x4d	77
73	0x2f	47
74	0xb5	-75
75	0x14	20
76	0xa6	-90
77	0x2f	47
78	0x0b	11
79	0x81	-127
80	0x2c	44
81	0x27	39
82	0xbb	-69
83	0x7f	127
84	0x2b	43
85	0x0a	10
86	0x0d	13
87	0x06	6
88	0xec	-20
89	0xe0	-32
90	0x48	72
91	0x7f	127
92	0x07	7
93	0xc3	-61
94	0xb4	-76
95	0xa9	-87
96	0x7f	127
97	0xb1	-79
98	0xb3	-77
99	0x2c	44
100	0x10	16
101	0x0a	10
102	0x0a	10
103	0x2e	46
104	0xf6	-10
105	0xf6	-10
106	0x4c	76
107	0xf2	-14
108	0x7f	127
109	0x0d	13
110	0x1b	27
111	0x3f	63
112	0x81	-127
113	0xf0	-16
114	0xc3	-61
115	0x97	-105
116	0xd2	-46
117	0x5e	94
118	0x13	19
119	0x10	16
120	0xa9	-87
121	0xe4	-28
122	0x11	17
123	0xa0	-96
124	0x2b	43
125	0x7f	127
126	0xc5	-59
127	0xc4	-60
128	0x37	55
129	0x1d	29
130	0x4a	74
131	0x55	85
132	0xa9	-87
133	0x35	53
134	0xf8	-8
135	0x7f	127
136	0x97	-105
137	0x83	-125
138	0x7f	127
139	0xf1	-15
140	0xef	-17
141	0xb8	-72
142	0x29	41
143	0x76	118
144	0x10	16
145	0x0b	11
146	0xec	-20
147	0x49	73
148	0xe9	-23
149	0x38	56
150	0xb8	-72
151	0x7f	127
152	0x9d	-99
153	0x11	17
154	0xfa	-6
155	0x19	25
156	0x0d	13
157	0xff	-1
158	0x51	81
159	0x81	-127
160	0x81	-127
161	0xda	-38
162	0x64	100
163	0xa8	-88
164	0x90	-112
165	0x2a	42
166	0xe5	-27
167	0xba	-70
168	0x07	7
169	0x17	23
170	0x97	-105
171	0x31	49
172	0x81	-127
173	0xfe	-2
174	0xe0	-32
175	0xc9	-55
176	0x18	24
177	0xce	-50
178	0x7f	127
179	0xe6	-26
180	0xa6	-90
181	0x05	5
182	0x34	52
183	0x03	3
184	0x19	25
185	0x10	16
186	0xb2	-78
187	0x4d	77
188	0x7f	127
189	0xfb	-5
190	0xeb	-21
191	0x94	-108
192	0x60	96
193	0xe2	-30
194	0xbe	-66
195	0x65	101
196	0x7f	127
197	0x03	3
198	0x0b	11
199	0x03	3
200	0xca	-54
201	0x36	54
202	0x17	23
203	0x81	-127
204	0x6f	111
205	0xeb	-21
206	0x16	22
207	0x56	86
208	0x1e	30
209	0xa0	-96
210	0xd8	-40
211	0xba	-70
212	0x81	-127
213	0xff	-1
214	0xf9	-7
215	0x15	21
216	0xc0	-64
217	0x9f	-97
218	0xfb	-5
219	0xa0	-96
220	0x7f	127
221	0xc3	-61
222	0xc3	-61
223	0xe7	-25
224	0x81	-127
225	0xf5	-11
226	0xbe	-66
227	0xc5	-59
228	0xa0	-96
229	0x3a	58
230	0xe4	-28
231	0xb8	-72
232	0xb6	-74
233	0x9a	-102
234	0xba	-70
235	0x8e	-114
236	0x7f	127
237	0x5a	90
238	0x9e	-98
239	0xdb	-37
240	0x10	16
241	0x23	35
242	0x7f	127
243	0xa7	-89
244	0x30	48
245	0xf9	-7
246	0x30	48
247	0x10	16
248	0xc6	-58
249	0xc3	-61
250	0xbd	-67
251	0xd5	-43
252	0x30	48
253	0xc5	-59
254	0x49	73
255	0x81	-127

model/conv2d_10/Conv2D i1 [8, 1, 1, 32]
0	0x52	82
1	0x1b	27
2	0x43	67
3	0xd2	-46
4	0xf6	-10
5	0xc6	-58
6	0x0e	14
7	0xdd	-35
8	0xeb	-21
9	0x12	18
10	0x5d	93
11	0x0d	13
12	0x9b	-101
13	0xda	-38
14	0x3f	63
15	0x5f	95
16	0x0f	15
17	0x0e	14
18	0xd7	-41
19	0x3d	61
20	0x55	85
21	0x3d	61
22	0x1e	30
23	0x0d	13
24	0x7f	127
25	0xfc	-4
26	0xc0	-64
27	0xdf	-33
28	0x6c	108
29	0xf9	-7
30	0x7a	122
31	0x32	50
32	0xf6	-10
33	0xa1	-95
34	0xe6	-26
35	0x1e	30
36	0xf1	-15
37	0x20	32
38	0x4a	74
39	0x46	70
40	0x40	64
41	0x0d	13
42	0xe9	-23
43	0x7f	127
44	0x1a	26
45	0x19	25
46	0xeb	-21
47	0xd9	-39
48	0xd6	-42
49	0x11	17
50	0xe9	-23
51	0xfd	-3
52	0x34	52
53	0xe4	-28
54	0xfd	-3
55	0xfb	-5
56	0x07	7
57	0xad	-83
58	0x3a	58
59	0xd5	-43
60	0xf9	-7
61	0x0c	12
62	0xf1	-15
63	0xc3	-61
64	0x51	81
65	0x0f	15
66	0x19	25
67	0xc0	-64
68	0x28	40
69	0xd5	-43
70	0x04	4
71	0x0e	14
72	0xd9	-39
73	0x7f	127
74	0xf3	-13
75	0xfc	-4
76	0xdc	-36
77	0x1b	27
78	0x26	38
79	0xf0	-16
80	0x17	23
81	0x46	70
82	0xae	-82
83	0xdc	-36
84	0xbf	-65
85	0x35	53
86	0x09	9
87	0x38	56
88	0xf2	-14
89	0x08	8
90	0xfd	-3
91	0x11	17
92	0x00	0
93	0x32	50
94	0xf0	-16
95	0xd7	-41
96	0x04	4
97	0x45	69
98	0xf9	-7
99	0x71	113
100	0xb8	-72
101	0x44	68
102	0xb5	-75
103	0x81	-127
104	0xe0	-32
105	0xf0	-16
106	0x1e	30
107	0x24	36
108	0xfd	-3
109	0xd5	-43
110	0x48	72
111	0xf3	-13
112	0xf7	-9
113	0xf1	-15
114	0x37	55
115	0xcc	-52
116	0x38	56
117	0xf7	-9
118	0xe1	-31
119	0xb9	-71
120	0xd9	-39
121	0xe9	-23
122	0x46	70
123	0xf5	-11
124	0x51	81
125	0xe8	-24
126	0x26	38
127	0x06	6
128	0xf9	-7
129	0xcf	-49
130	0x1a	26
131	0xdc	-36
132	0xf2	-14
133	0xf3	-13
134	0x06	6
135	0xfa	-6
136	0x93	-109
137	0x0a	10
138	0xec	-20
139	0x23	35
140	0x9c	-100
141	0xcb	-53
142	0x02	2
143	0x08	8
144	0x0e	14
145	0xf5	-11
146	0xfe	-2
147	0xe8	-24
148	0x2d	45
149	0x55	85
150	0x04	4
151	0xfe	-2
152	0xd0	-48
153	0xc6	-58
154	0x7f	127
155	0x5f	95
156	0xe5	-27
157	0x21	33
158	0x2f	47
159	0x1d	29
160	0x24	36
161	0x23	35
162	0xf8	-8
163	0x4c	76
164	0xcc	-52
165	0x4d	77
166	0xc5	-59
167	0x09	9
168	0x26	38
169	0x09	9
170	0x4d	77
171	0xda	-38
172	0x36	54
173	0x52	82
174	0xc3	-61
175	0x85	-123
176	0xbe	-66
177	0xc4	-60
178	0x2a	42
179	0xcb	-53
180	0x21	33
181	0xeb	-21
182	0x81	-127
183	0xc9	-55
184	0xf4	-12
185	0x1a	26
186	0xed	-19
187	0xda	-38
188	0x0e	14
189	0xc9	-55
190	0xf5	-11
191	0xd1	-47
192	0x4e	78
193	0x23	35
194	0x7f	127
195	0xed	-19
196	0xec	-20
197	0x1b	27
198	0xf5	-11
199	0x4f	79
200	0xff	-1
201	0xee	-18
202	0x44	68
203	0x16	22
204	0xe3	-29
205	0xd6	-42
206	0xec	-20
207	0xe6	-26
208	0x8f	-113
209	0xac	-84
210	0xbb	-69
211	0xdf	-33
212	0x31	49
213	0x37	55
214	0xdb	-37
215	0xde	-34
216	0xeb	-21
217	0x1c	28
218	0xbf	-65
219	0xb1	-79
220	0xe4	-28
221	0x20	32
222	0x2e	46
223	0xa4	-92
224	0x2f	47
225	0xb4	-76
226	0xcf	-49
227	0xc8	-56
228	0xf7	-9
229	0xcb	-53
230	0x15	21
231	0x07	7
232	0xd7	-41
233	0x1d	29
234	0xa0	-96
235	0xf9	-7
236	0x81	-127
237	0x8d	-115
238	0x04	4
239	0x4a	74
240	0x35	53
241	0xf0	-16
242	0xbb	-69
243	0x28	40
244	0x13	19
245	0x17	23
246	0xf0	-16
247	0x10	16
248	0xd2	-46
249	0xee	-18
250	0x16	22
251	0x34	52
252	0xee	-18
253	0x31	49
254	0x12	18
255	0x5c	92

model/conv2d_11/Conv2D i1 [32, 1, 1, 8]
0	0x0b	11
1	0xc3	-61
2	0x39	57
3	0xc3	-61
4	0xd1	-47
5	0x81	-127
6	0xd4	-44
7	0x6a	106
8	0xeb	-21
9	0xe0	-32
10	0xeb	-21
11	0xfb	-5
12	0xdd	-35
13	0xd8	-40
14	0x7f	127
15	0x43	67
16	0xf9	-7
17	0xac	-84
18	0x48	72
19	0xa6	-90
20	0x49	73
21	0x82	-126
22	0xf4	-12
23	0x7f	127
24	0x36	54
25	0x7f	127
26	0xdd	-35
27	0xe8	-24
28	0x35	53
29	0xef	-17
30	0x08	8
31	0x2a	42
32	0x21	33
33	0xf3	-13
34	0x8d	-115
35	0x7f	127
36	0x18	24
37	0xc1	-63
38	0x13	19
39	0x75	117
40	0xe5	-27
41	0x40	64
42	0x7f	127
43	0xac	-84
44	0xe5	-27
45	0xf5	-11
46	0x1c	28
47	0xd0	-48
48	0x40	64
49	0x28	40
50	0xab	-85
51	0xbb	-69
52	0x04	4
53	0xc3	-61
54	0x15	21
55	0x7f	127
56	0x90	-112
57	0x21	33
58	0xea	-22
59	0xff	-1
60	0xab	-85
61	0x81	-127
62	0xb4	-76
63	0x1b	27
64	0xe3	-29
65	0xf0	-16
66	0x12	18
67	0xa8	-88
68	0x5a	90
69	0xeb	-21
70	0xfa	-6
71	0x7f	127
72	0x81	-127
73	0x54	84
74	0xbe	-66
75	0x26	38
76	0xac	-84
77	0xf3	-13
78	0xa0	-96
79	0xb5	-75
80	0x08	8
81	0xdd	-35
82	0xd4	-44
83	0xc4	-60
84	0x81	-127
85	0xf3	-13
86	0xd5	-43
87	0xe7	-25
88	0x7f	127
89	0xf1	-15
90	0x62	98
91	0xd4	-44
92	0x54	84
93	0x1b	27
94	0x54	84
95	0x34	52
96	0x2f	47
97	0xee	-18
98	0xd5	-43
99	0xbb	-69
100	0x7f	127
101	0xf1	-15
102	0xa0	-96
103	0xc6	-58
104	0x81	-127
105	0xd7	-41
106	0xe2	-30
107	0xf4	-12
108	0xdb	-37
109	0x39	57
110	0xd8	-40
111	0xec	-20
112	0xff	-1
113	0xda	-38
114	0x0e	14
115	0xa3	-93
116	0x48	72
117	0xcb	-53
118	0xe3	-29
119	0x7f	127
120	0xf9	-7
121	0x23	35
122	0xf2	-14
123	0xd1	-47
124	0x48	72
125	0x0b	11
126	0x25	37
127	0x7f	127
128	0xa1	-95
129	0xe4	-28
130	0x08	8
131	0xce	-50
132	0x7f	127
133	0xef	-17
134	0xdf	-33
135	0x51	81
136	0xee	-18
137	0x7f	127
138	0x87	-121
139	0xd5	-43
140	0xe8	-24
141	0x37	55
142	0x21	33
143	0x2e	46
144	0x7f	127
145	0xdc	-36
146	0x32	50
147	0xfa	-6
148	0x26	38
149	0x58	88
150	0x66	102
151	0xbc	-68
152	0xfa	-6
153	0xae	-82
154	0x01	1
155	0x8e	-114
156	0x81	-127
157	0x4f	79
158	0x0d	13
159	0xdd	-35
160	0x17	23
161	0x23	35
162	0x81	-127
163	0xec	-20
164	0x92	-110
165	0x75	117
166	0x0e	14
167	0xa7	-89
168	0x1b	27
169	0x57	87
170	0x09	9
171	0x50	80
172	0x7f	127
173	0xe0	-32
174	0xf1	-15
175	0xf2	-14
176	0xb3	-77
177	0x1e	30
178	0x2d	45
179	0x9b	-101
180	0x2c	44
181	0xf1	-15
182	0x2a	42
183	0x7f	127
184	0xd7	-41
185	0x81	-127
186	0x64	100
187	0x6f	111
188	0x6a	106
189	0x1f	31
190	0x29	41
191	0x5d	93
192	0x7f	127
193	0xc3	-61
194	0xe9	-23
195	0xda	-38
196	0x01	1
197	0x1f	31
198	0x21	33
199	0xe1	-31
200	0x39	57
201	0xcd	-51
202	0x70	112
203	0x6e	110
204	0xfe	-2
205	0x81	-127
206	0xb0	-80
207	0x98	-104
208	0x3d	61
209	0xe2	-30
210	0xf3	-13
211	0xd1	-47
212	0x0d	13
213	0x32	50
214	0x81	-127
215	0x2d	45
216	0x4b	75
217	0x24	36
218	0x39	57
219	0x41	65
220	0xa7	-89
221	0x44	68
222	0x9f	-97
223	0x7f	127
224	0xd0	-48
225	0xff	-1
226	0xe4	-28
227	0x33	51
228	0x0c	12
229	0xce	-50
230	0x81	-127
231	0xf6	-10
232	0x02	2
233	0xc6	-58
234	0x9f	-97
235	0xc6	-58
236	0x3a	58
237	0x81	-127
238	0x7c	124
239	0xa4	-92
240	0xef	-17
241	0x81	-127
242	0x6b	107
243	0x58	88
244	0x56	86
245	0xed	-19
246	0xf9	-7
247	0x4f	79
248	0x4f	79
249	0xb3	-77
250	0xca	-54
251	0x12	18
252	0x81	-127
253	0x3c	60
254	0xde	-34
255	0xb1	-79

model/conv2d_12/Conv2D i1 [8, 1, 1, 32]
0	0xf5	-11
1	0xfb	-5
2	0x2c	44
3	0x29	41
4	0x09	9
5	0x68	104
6	0xee	-18
7	0x0a	10
8	0x25	37
9	0x34	52
10	0xd7	-41
11	0xbc	-68
12	0xf3	-13
13	0x8d	-115
14	0x06	6
15	0x23	35
16	0x81	-127
17	0xdf	-33
18	0xad	-83
19	0xf3	-13
20	0x0f	15
21	0xd9	-39
22	0x13	19
23	0xee	-18
24	0x1e	30
25	0x03	3
26	0xee	-18
27	0xc8	-56
28	0xaf	-81
29	0xf4	-12
30	0x0e	14
31	0x0a	10
32	0x9f	-97
33	0x03	3
34	0xdb	-37
35	0x1b	27
36	0x0e	14
37	0x06	6
38	0xfb	-5
39	0xb4	-76
40	0x0c	12
41	0xe5	-27
42	0x46	70
43	0x5d	93
44	0xcb	-53
45	0xf1	-15
46	0xde	-34
47	0x26	38
48	0xf9	-7
49	0x04	4
50	0x48	72
51	0x37	55
52	0xdd	-35
53	0x4b	75
54	0xdc	-36
55	0xc6	-58
56	0xb1	-79
57	0xd1	-47
58	0xb4	-76
59	0x81	-127
60	0xc6	-58
61	0x91	-111
62	0x18	24
63	0x48	72
64	0x5a	90
65	0x81	-127
66	0x27	39
67	0xe8	-24
68	0xdc	-36
69	0x69	105
70	0x4d	77
71	0xd2	-46
72	0xce	-50
73	0x42	66
74	0xf8	-8
75	0x18	24
76	0x41	65
77	0xe9	-23
78	0xfc	-4
79	0x8b	-117
80	0xba	-70
81	0x09	9
82	0x1f	31
83	0x09	9
84	0x20	32
85	0x02	2
86	0x3c	60
87	0xc3	-61
88	0xea	-22
89	0x61	97
90	0x8c	-116
91	0xf4	-12
92	0x37	55
93	0xe4	-28
94	0x10	16
95	0xc4	-60
96	0x6a	106
97	0x35	53
98	0x13	19
99	0x2e	46
100	0xfb	-5
101	0x08	8
102	0xed	-19
103	0x87	-121
104	0x1e	30
105	0xe2	-30
106	0xa8	-88
107	0x10	16
108	0x8d	-115
109	0x67	103
110	0xc2	-62
111	0x5f	95
112	0xdf	-33
113	0x4a	74
114	0xdb	-37
115	0xc2	-62
116	0x3a	58
117	0x1f	31
118	0x1d	29
119	0x7f	127
120	0xee	-18
121	0x5d	93
122	0x9b	-101
123	0x05	5
124	0x0a	10
125	0x1a	26
126	0x2c	44
127	0x48	72
128	0xa6	-90
129	0x0a	10
130	0xf2	-14
131	0xc3	-61
132	0x2c	44
133	0xc4	-60
134	0x1d	29
135	0xec	-20
136	0xe5	-27
137	0x3a	58
138	0xcf	-49
139	0xfe	-2
140	0xcb	-53
141	0x6e	110
142	0xd4	-44
143	0xea	-22
144	0x81	-127
145	0xfa	-6
146	0x0c	12
147	0xe5	-27
148	0x0e	14
149	0x0d	13
150	0xf4	-12
151	0x25	37
152	0x4a	74
153	0xca	-54
154	0xe5	-27
155	0x0b	11
156	0xfc	-4
157	0xf4	-12
158	0x0c	12
159	0xa3	-93
160	0x81	-127
161	0xc5	-59
162	0xee	-18
163	0x3a	58
164	0xe2	-30
165	0x2b	43
166	0x0a	10
167	0xe9	-23
168	0x19	25
169	0x12	18
170	0xfb	-5
171	0xdd	-35
172	0xb8	-72
173	0x2b	43
174	0x24	36
175	0xfb	-5
176	0x57	87
177	0x44	68
178	0xf5	-11
179	0xe1	-31
180	0x2b	43
181	0x82	-126
182	0xff	-1
183	0x41	65
184	0x24	36
185	0x2a	42
186	0xea	-22
187	0xf7	-9
188	0x35	53
189	0xf0	-16
190	0xb9	-71
191	0xf4	-12
192	0xe4	-28
193	0xed	-19
194	0x2b	43
195	0xc1	-63
196	0x1a	26
197	0xc8	-56
198	0x3a	58
199	0x48	72
200	0xf0	-16
201	0xba	-70
202	0x26	38
203	0xe0	-32
204	0x06	6
205	0x05	5
206	0xe3	-29
207	0xd9	-39
208	0x20	32
209	0xd0	-48
210	0x06	6
211	0x28	40
212	0x1c	28
213	0xf0	-16
214	0xf8	-8
215	0x77	119
216	0x13	19
217	0x15	21
218	0x9d	-99
219	0xf0	-16
220	0x02	2
221	0xc6	-58
222	0x7f	127
223	0x33	51
224	0x22	34
225	0xd5	-43
226	0xfd	-3
227	0x4e	78
228	0x50	80
229	0x81	-127
230	0xdc	-36
231	0xba	-70
232	0xdc	-36
233	0xca	-54
234	0x05	5
235	0x4a	74
236	0xf3	-13
237	0x99	-103
238	0xba	-70
239	0x2d	45
240	0x8e	-114
241	0x3c	60
242	0x09	9
243	0x3f	63
244	0x0a	10
245	0xc8	-56
246	0xd9	-39
247	0xed	-19
248	0xdb	-37
249	0x52	82
250	0xea	-22
251	0x52	82
252	0x5b	91
253	0x5e	94
254	0xed	-19
255	0x13	19

model/conv2d_13/Conv2D i1 [48, 1, 1, 8]
0	0x7f	127
1	0x96	-106
2	0x06	6
3	0xdd	-35
4	0xbb	-69
5	0x5e	94
6	0x5c	92
7	0xbf	-65
8	0x04	4
9	0xf1	-15
10	0x06	6
11	0xde	-34
12	0x7f	127
13	0xea	-22
14	0x00	0
15	0xf4	-12
16	0x7f	127
17	0xaf	-81
18	0xa8	-88
19	0x2f	47
20	0x0b	11
21	0x27	39
22	0x40	64
23	0x33	51
24	0x40	64
25	0x6d	109
26	0x53	83
27	0x99	-103
28	0x47	71
29	0x95	-107
30	0xd2	-46
31	0x81	-127
32	0x7f	127
33	0x35	53
34	0xdb	-37
35	0x73	115
36	0xf7	-9
37	0x07	7
38	0x41	65
39	0xe8	-24
40	0xfd	-3
41	0x81	-127
42	0xa3	-93
43	0x5e	94
44	0xf8	-8
45	0x0b	11
46	0x9d	-99
47	0xbe	-66
48	0x28	40
49	0xf3	-13
50	0x08	8
51	0x81	-127
52	0x4d	77
53	0xe3	-29
54	0x2c	44
55	0xf1	-15
56	0xb4	-76
57	0x1c	28
58	0x0a	10
59	0x07	7
60	0xb0	-80
61	0x20	32
62	0xc6	-58
63	0x81	-127
64	0x7f	127
65	0x14	20
66	0x54	84
67	0x0d	13
68	0xbd	-67
69	0x27	39
70	0xf3	-13
71	0x92	-110
72	0x97	-105
73	0x7b	123
74	0xe2	-30
75	0x81	-127
76	0x6d	109
77	0x03	3
78	0x57	87
79	0x06	6
80	0x61	97
81	0x7f	127
82	0x37	55
83	0xcf	-49
84	0x2a	42
85	0x00	0
86	0x3f	63
87	0x20	32
88	0x7f	127
89	0xd3	-45
90	0x20	32
91	0x56	86
92	0xf6	-10
93	0x1e	30
94	0x76	118
95	0x0b	11
96	0x0b	11
97	0x1b	27
98	0xa0	-96
99	0x0a	10
100	0xeb	-21
101	0x20	32
102	0x81	-127
103	0x1b	27
104	0x92	-110
105	0x44	68
106	0x4c	76
107	0x1f	31
108	0x17	23
109	0x7f	127
110	0x1c	28
111	0x63	99
112	0xe6	-26
113	0xaa	-86
114	0x2c	44
115	0xd3	-45
116	0x4e	78
117	0x81	-127
118	0x5a	90
119	0xc7	-57
120	0x81	-127
121	0x24	36
122	0xc3	-61
123	0x50	80
124	0x8e	-114
125	0x8e	-114
126	0x0e	14
127	0x53	83
128	0xbf	-65
129	0x1c	28
130	0x7f	127
131	0x6a	106
132	0xf0	-16
133	0x39	57
134	0x70	112
135	0x46	70
136	0x1d	29
137	0x04	4
138	0xf8	-8
139	0xd5	-43
140	0xf6	-10
141	0x38	56
142	0x81	-127
143	0x32	50
144	0x81	-127
145	0x25	37
146	0x66	102
147	0xce	-50
148	0x4d	77
149	0xe0	-32
150	0x21	33
151	0xd4	-44
152	0x2c	44
153	0x2c	44
154	0x7f	127
155	0x7d	125
156	0xf3	-13
157	0x52	82
158	0x0f	15
159	0x31	49
160	0xa7	-89
161	0x19	25
162	0xa1	-95
163	0x7f	127
164	0xf8	-8
165	0xac	-84
166	0x20	32
167	0x50	80
168	0x46	70
169	0xbd	-67
170	0xea	-22
171	0x4e	78
172	0x81	-127
173	0xdd	-35
174	0x14	20
175	0xb8	-72
176	0xdc	-36
177	0x7f	127
178	0xb3	-77
179	0xc8	-56
180	0x31	49
181	0x36	54
182	0x03	3
183	0xe2	-30
184	0xcf	-49
185	0x19	25
186	0x81	-127
187	0xf2	-14
188	0x8f	-113
189	0xb8	-72
190	0x3d	61
191	0xc9	-55
192	0x81	-127
193	0x5d	93
194	0xe6	-26
195	0x0d	13
196	0x21	33
197	0xbd	-67
198	0x60	96
199	0x62	98
200	0x12	18
201	0x08	8
202	0xf9	-7
203	0xc9	-55
204	0x7f	127
205	0x6f	111
206	0x34	52
207	0x4a	74
208	0xe6	-26
209	0xad	-83
210	0x0e	14
211	0x27	39
212	0x7f	127
213	0xb6	-74
214	0xe8	-24
215	0x81	-127
216	0x3b	59
217	0xee	-18
218	0xc3	-61
219	0xe6	-26
220	0x9e	-98
221	0xfc	-4
222	0x7f	127
223	0x2d	45
224	0xc4	-60
225	0xe7	-25
226	0xb0	-80
227	0x75	117
228	0x68	104
229	0xdf	-33
230	0xd6	-42
231	0x81	-127
232	0x2e	46
233	0x36	54
234	0x12	18
235	0xc8	-56
236	0x81	-127
237	0x4a	74
238	0x4a	74
239	0x29	41
240	0xab	-85
241	0x7c	124
242	0x10	16
243	0x81	-127
244	0xed	-19
245	0x4d	77
246	0x2b	43
247	0xd7	-41
248	0xcd	-51
249	0x7f	127
250	0xbc	-68
251	0xe9	-23
252	0x13	19
253	0x49	73
254	0x06	6
255	0xbf	-65

model/conv2d_14/Conv2D i1 [8, 1, 1, 48]
0	0x11	17
1	0x2f	47
2	0xc6	-58
3	0x47	71
4	0xbf	-65
5	0xeb	-21
6	0xe2	-30
7	0xed	-19
8	0x8d	-115
9	0x3f	63
10	0x81	-127
11	0x59	89
12	0x47	71
13	0x66	102
14	0xf6	-10
15	0xb7	-73
16	0x03	3
17	0x06	6
18	0x17	23
19	0xf5	-11
20	0xab	-85
21	0xca	-54
22	0xf4	-12
23	0xfd	-3
24	0xf8	-8
25	0xb1	-79
26	0xe6	-26
27	0x01	1
28	0xee	-18
29	0xc5	-59
30	0xe2	-30
31	0xed	-19
32	0x0a	10
33	0x11	17
34	0xf0	-16
35	0xdc	-36
36	0x22	34
37	0x1e	30
38	0xf3	-13
39	0x04	4
40	0x08	8
41	0xd9	-39
42	0x0c	12
43	0xf2	-14
44	0x4a	74
45	0xfe	-2
46	0x16	22
47	0xa8	-88
48	0xf1	-15
49	0xf3	-13
50	0x7f	127
51	0xfe	-2
52	0x00	0
53	0xcf	-49
54	0x49	73
55	0xe0	-32
56	0xe3	-29
57	0x01	1
58	0xda	-38
59	0xc5	-59
60	0xb4	-76
61	0xc1	-63
62	0x1b	27
63	0x3f	63
64	0x0d	13
65	0x1c	28
66	0xf9	-7
67	0x18	24
68	0x36	54
69	0xef	-17
70	0xc3	-61
71	0x19	25
72	0xf9	-7
73	0x32	50
74	0xd1	-47
75	0xfe	-2
76	0xc8	-56
77	0x2f	47
78	0x17	23
79	0xc9	-55
80	0x18	24
81	0xcd	-51
82	0x2a	42
83	0x03	3
84	0x0b	11
85	0x2a	42
86	0xfa	-6
87	0x35	53
88	0x3c	60
89	0x0e	14
90	0x2b	43
91	0x22	34
92	0x0a	10
93	0x38	56
94	0x22	34
95	0x22	34
96	0xf6	-10
97	0xfb	-5
98	0x50	80
99	0xf6	-10
100	0xda	-38
101	0xd3	-45
102	0x46	70
103	0xd5	-43
104	0x9d	-99
105	0x14	20
106	0xf8	-8
107	0xe5	-27
108	0x16	22
109	0xe4	-28
110	0xf9	-7
111	0xf9	-7
112	0xdf	-33
113	0x0f	15
114	0xe4	-28
115	0xc7	-57
116	0xd8	-40
117	0xfa	-6
118	0x7f	127
119	0xe1	-31
120	0x25	37
121	0x49	73
122	0xf7	-9
123	0x31	49
124	0x0f	15
125	0x25	37
126	0xd9	-39
127	0x7b	123
128	0x99	-103
129	0x20	32
130	0x19	25
131	0x0e	14
132	0x16	22
133	0xc4	-60
134	0xe3	-29
135	0xea	-22
136	0xec	-20
137	0x1d	29
138	0x22	34
139	0x12	18
140	0x06	6
141	0x02	2
142	0x18	24
143	0xe7	-25
144	0xeb	-21
145	0xef	-17
146	0x4b	75
147	0xdd	-35
148	0xbc	-68
149	0x6c	108
150	0xe3	-29
151	0x7f	127
152	0x43	67
153	0xba	-70
154	0x24	36
155	0x19	25
156	0xfc	-4
157	0xf5	-11
158	0xf2	-14
159	0x34	52
160	0x1e	30
161	0xb3	-77
162	0xf1	-15
163	0xb5	-75
164	0x24	36
165	0xe6	-26
166	0x5e	94
167	0xb2	-78
168	0xb9	-71
169	0x40	64
170	0x22	34
171	0x25	37
172	0xc9	-55
173	0xf0	-16
174	0xf0	-16
175	0x39	57
176	0xba	-70
177	0xa6	-90
178	0x9e	-98
179	0xb9	-71
180	0x3e	62
181	0x5b	91
182	0xfe	-2
183	0x4e	78
184	0x21	33
185	0xda	-38
186	0x1e	30
187	0xa0	-96
188	0xac	-84
189	0xa9	-87
190	0x36	54
191	0x94	-108
192	0xb5	-75
193	0x94	-108
194	0x1a	26
195	0x5e	94
196	0x9c	-100
197	0x0c	12
198	0xe4	-28
199	0xf5	-11
200	0xe4	-28
201	0x74	116
202	0x12	18
203	0x2f	47
204	0x0b	11
205	0xd7	-41
206	0x4b	75
207	0xc7	-57
208	0xc1	-63
209	0x1b	27
210	0x59	89
211	0x61	97
212	0x3e	62
213	0x49	73
214	0xd6	-42
215	0x14	20
216	0x49	73
217	0xd9	-39
218	0x00	0
219	0xb4	-76
220	0x0f	15
221	0x7f	127
222	0xeb	-21
223	0xf2	-14
224	0x42	66
225	0x60	96
226	0x43	67
227	0x16	22
228	0x3b	59
229	0xe9	-23
230	0x31	49
231	0x11	17
232	0xfe	-2
233	0x6d	109
234	0xff	-1
235	0x39	57
236	0x28	40
237	0x34	52
238	0xd8	-40
239	0x07	7
240	0x1f	31
241	0x1e	30
242	0x02	2
243	0xc5	-59
244	0xb8	-72
245	0xc2	-62
246	0x98	-104
247	0xe3	-29
248	0x17	23
249	0x15	21
250	0xf3	-13
251	0x4b	75
252	0x54	84
253	0xa7	-89
254	0x7a	122
255	0xbb	-69

model/conv2d_15/Conv2D i1 [48, 1, 1, 8]
0	0x05	5
1	0xc9	-55
2	0x8f	-113
3	0xeb	-21
4	0x5a	90
5	0x7f	127
6	0x1e	30
7	0xcd	-51
8	0xe7	-25
9	0xdb	-37
10	0x21	33
11	0xf8	-8
12	0x81	-127
13	0xd9	-39
14	0x10	16
15	0x56	86
16	0x1e	30
17	0x4f	79
18	0x7f	127
19	0x3e	62
20	0x0e	14
21	0xe8	-24
22	0xbf	-65
23	0x37	55
24	0x57	87
25	0x4e	78
26	0x33	51
27	0x81	-127
28	0xc8	-56
29	0x1c	28
30	0x32	50
31	0x41	65
32	0xbe	-66
33	0x91	-111
34	0xdc	-36
35	0x42	66
36	0x26	38
37	0xe5	-27
38	0x8b	-117
39	0x81	-127
40	0x4f	79
41	0xde	-34
42	0x45	69
43	0xf0	-16
44	0x22	34
45	0xaf	-81
46	0xe5	-27
47	0x7f	127
48	0xd5	-43
49	0x28	40
50	0xb3	-77
51	0xf4	-12
52	0x1c	28
53	0x81	-127
54	0x6f	111
55	0x10	16
56	0x9e	-98
57	0x7f	127
58	0xf9	-7
59	0xb4	-76
60	0x01	1
61	0xbc	-68
62	0xc3	-61
63	0x0f	15
64	0xab	-85
65	0x7a	122
66	0xc3	-61
67	0xe3	-29
68	0x7f	127
69	0x0e	14
70	0x66	102
71	0xe9	-23
72	0xfd	-3
73	0x0a	10
74	0x10	16
75	0xa1	-95
76	0x7f	127
77	0x30	48
78	0x05	5
79	0x4c	76
80	0xb9	-71
81	0x7f	127
82	0x3b	59
83	0xf7	-9
84	0x8d	-115
85	0xce	-50
86	0xff	-1
87	0x37	55
88	0xfc	-4
89	0x29	41
90	0x00	0
91	0x7f	127
92	0x0b	11
93	0x0b	11
94	0xf7	-9
95	0x01	1
96	0x19	25
97	0x11	17
98	0xf4	-12
99	0x1d	29
100	0x47	71
101	0xb3	-77
102	0xf4	-12
103	0x7f	127
104	0xdf	-33
105	0x81	-127
106	0x8c	-116
107	0xf7	-9
108	0x5f	95
109	0x4c	76
110	0x50	80
111	0x7c	124
112	0x02	2
113	0xb6	-74
114	0x36	54
115	0x24	36
116	0xcb	-53
117	0xfa	-6
118	0x7f	127
119	0x53	83
120	0x08	8
121	0x0e	14
122	0x81	-127
123	0x3c	60
124	0xec	-20
125	0x58	88
126	0xc5	-59
127	0x4a	74
128	0x41	65
129	0xd3	-45
130	0x09	9
131	0x82	-126
132	0x39	57
133	0x7f	127
134	0x1e	30
135	0x8b	-117
136	0x24	36
137	0x15	21
138	0xf5	-11
139	0x3a	58
140	0x7f	127
141	0xc6	-58
142	0xe8	-24
143	0x13	19
144	0x17	23
145	0x11	17
146	0x98	-104
147	0xdd	-35
148	0x16	22
149	0x6e	110
150	0x7f	127
151	0x26	38
152	0xd6	-42
153	0xed	-19
154	0xdd	-35
155	0xd3	-45
156	0x20	32
157	0xf3	-13
158	0xe2	-30
159	0x7f	127
160	0xfd	-3
161	0x7f	127
162	0x08	8
163	0x02	2
164	0x91	-111
165	0x33	51
166	0x41	65
167	0x45	69
168	0x9f	-97
169	0x35	53
170	0x63	99
171	0x18	24
172	0x33	51
173	0x45	69
174	0x7f	127
175	0x8f	-113
176	0x28	40
177	0x04	4
178	0x8b	-117
179	0x01	1
180	0x81	-127
181	0x5d	93
182	0xff	-1
183	0xb9	-71
184	0x22	34
185	0x81	-127
186	0xea	-22
187	0x13	19
188	0xec	-20
189	0x11	17
190	0xc6	-58
191	0xf4	-12
192	0xf1	-15
193	0xaa	-86
194	0xa5	-91
195	0x40	64
196	0x9c	-100
197	0x9c	-100
198	0x7f	127
199	0xd3	-45
200	0xda	-38
201	0x46	70
202	0xb0	-80
203	0x21	33
204	0xfc	-4
205	0x81	-127
206	0xc4	-60
207	0x96	-106
208	0xa7	-89
209	0x1f	31
210	0xa2	-94
211	0x10	16
212	0xbc	-68
213	0x81	-127
214	0x39	57
215	0x70	112
216	0xd1	-47
217	0xc8	-56
218	0x45	69
219	0x10	16
220	0x06	6
221	0x4f	79
222	0x7f	127
223	0x76	118
224	0xf3	-13
225	0xa9	-87
226	0xa1	-95
227	0x18	24
228	0x7f	127
229	0x0f	15
230	0x45	69
231	0x90	-112
232	0x8b	-117
233	0x72	114
234	0x3b	59
235	0x31	49
236	0x22	34
237	0x37	55
238	0x81	-127
239	0xe2	-30
240	0x26	38
241	0xb8	-72
242	0x01	1
243	0xb5	-75
244	0x10	16
245	0xc7	-57
246	0xb9	-71
247	0x7f	127
248	0x43	67
249	0x0c	12
250	0xf9	-7
251	0xb1	-79
252	0x5a	90
253	0x23	35
254	0x81	-127
255	0xf9	-7

model/conv2d_16/Conv2D i1 [8, 1, 1, 48]
0	0x17	23
1	0xf5	-11
2	0x0e	14
3	0xfd	-3
4	0xf7	-9
5	0x33	51
6	0x20	32
7	0x49	73
8	0x00	0
9	0x05	5
10	0xdf	-33
11	0xdf	-33
12	0x70	112
13	0x2f	47
14	0x0d	13
15	0x35	53
16	0xd6	-42
17	0x1a	26
18	0xf9	-7
19	0x09	9
20	0xe5	-27
21	0xff	-1
22	0x0f	15
23	0x16	22
24	0x18	24
25	0x07	7
26	0xe1	-31
27	0x27	39
28	0x01	1
29	0x2b	43
30	0x65	101
31	0xb6	-74
32	0xed	-19
33	0xfc	-4
34	0x04	4
35	0xf1	-15
36	0x1d	29
37	0x5d	93
38	0x07	7
39	0x3a	58
40	0x20	32
41	0xe4	-28
42	0x81	-127
43	0xde	-34
44	0xf3	-13
45	0xf0	-16
46	0xfe	-2
47	0x3e	62
48	0xb8	-72
49	0xf8	-8
50	0xa1	-95
51	0xeb	-21
52	0x20	32
53	0xcc	-52
54	0x03	3
55	0xe3	-29
56	0x1c	28
57	0x16	22
58	0xe1	-31
59	0xc9	-55
60	0xa9	-87
61	0x41	65
62	0x25	37
63	0x0a	10
64	0x39	57
65	0xd5	-43
66	0xd3	-45
67	0x4e	78
68	0x7f	127
69	0xd0	-48
70	0x57	87
71	0x48	72
72	0x90	-112
73	0x1d	29
74	0x4f	79
75	0xf4	-12
76	0x1b	27
77	0xb7	-73
78	0x04	4
79	0xfb	-5
80	0x15	21
81	0x71	113
82	0xa4	-92
83	0x2b	43
84	0x1b	27
85	0x0f	15
86	0xe9	-23
87	0xb2	-78
88	0x0a	10
89	0xe8	-24
90	0x4e	78
91	0x59	89
92	0x08	8
93	0x42	66
94	0x0b	11
95	0xba	-70
96	0xf2	-14
97	0x63	99
98	0xa8	-88
99	0xb7	-73
100	0x11	17
101	0x12	18
102	0xf9	-7
103	0x24	36
104	0x69	105
105	0x05	5
106	0x7f	127
107	0xb1	-79
108	0xf9	-7
109	0x1b	27
110	0x82	-126
111	0xd2	-46
112	0x33	51
113	0x15	21
114	0x56	86
115	0xf3	-13
116	0x30	48
117	0xbc	-68
118	0x4e	78
119	0xd8	-40
120	0xcd	-51
121	0xfa	-6
122	0x26	38
123	0x2c	44
124	0x0e	14
125	0xe7	-25
126	0x07	7
127	0x01	1
128	0x9a	-102
129	0x15	21
130	0xd5	-43
131	0xb6	-74
132	0xfb	-5
133	0x55	85
134	0xd4	-44
135	0xba	-70
136	0x13	19
137	0x2a	42
138	0xb6	-74
139	0x36	54
140	0xc5	-59
141	0x9a	-102
142	0xe2	-30
143	0x28	40
144	0x16	22
145	0x15	21
146	0xc5	-59
147	0x92	-110
148	0x45	69
149	0x9c	-100
150	0xfa	-6
151	0x0a	10
152	0x40	64
153	0x71	113
154	0x2b	43
155	0x9b	-101
156	0xe3	-29
157	0xf9	-7
158	0x0f	15
159	0x7f	127
160	0x11	17
161	0x92	-110
162	0x12	18
163	0x0a	10
164	0xd4	-44
165	0x1b	27
166	0xf2	-14
167	0x69	105
168	0x56	86
169	0x45	69
170	0x46	70
171	0x6c	108
172	0x3f	63
173	0x21	33
174	0xce	-50
175	0x49	73
176	0x31	49
177	0xc8	-56
178	0xde	-34
179	0x61	97
180	0x3b	59
181	0xcd	-51
182	0x63	99
183	0x33	51
184	0x22	34
185	0x44	68
186	0xea	-22
187	0x9c	-100
188	0xd6	-42
189	0x25	37
190	0x45	69
191	0x30	48
192	0xdc	-36
193	0x81	-127
194	0x51	81
195	0xbb	-69
196	0x1d	29
197	0xd6	-42
198	0x0e	14
199	0x20	32
200	0x2e	46
201	0xb1	-79
202	0xde	-34
203	0xa4	-92
204	0xcb	-53
205	0x94	-108
206	0x00	0
207	0xdf	-33
208	0x3a	58
209	0xab	-85
210	0x0e	14
211	0x43	67
212	0x33	51
213	0x1a	26
214	0x29	41
215	0x24	36
216	0xd8	-40
217	0xf1	-15
218	0x31	49
219	0x06	6
220	0xc0	-64
221	0x40	64
222	0x14	20
223	0xcf	-49
224	0xb5	-75
225	0xf3	-13
226	0x18	24
227	0x02	2
228	0xc1	-63
229	0x15	21
230	0xb8	-72
231	0x0b	11
232	0xed	-19
233	0xdd	-35
234	0x0a	10
235	0x3e	62
236	0xfa	-6
237	0xc0	-64
238	0xbb	-69
239	0x0e	14
240	0xda	-38
241	0xe3	-29
242	0x37	55
243	0x6b	107
244	0xce	-50
245	0xb9	-71
246	0x8c	-116
247	0xf9	-7
248	0xe8	-24
249	0x9c	-100
250	0x0a	10
251	0xa2	-94
252	0x00	0
253	0x04	4
254	0x1c	28
255	0x07	7

model/conv2d_17/Conv2D i1 [48, 1, 1, 8]
0	0x26	38
1	0x2f	47
2	0xcf	-49
3	0xd7	-41
4	0xac	-84
5	0x5e	94
6	0x67	103
7	0x7f	127
8	0xf5	-11
9	0xa1	-95
10	0x7f	127
11	0x2c	44
12	0x25	37
13	0x0e	14
14	0x6b	107
15	0x34	52
16	0x7d	125
17	0xa1	-95
18	0x09	9
19	0x37	55
20	0x81	-127
21	0xd0	-48
22	0x90	-112
23	0xc8	-56
24	0x14	20
25	0xe1	-31
26	0x7f	127
27	0xfe	-2
28	0xf1	-15
29	0xfe	-2
30	0x99	-103
31	0x12	18
32	0x4f	79
33	0x60	96
34	0x1e	30
35	0x53	83
36	0x81	-127
37	0xce	-50
38	0x8b	-117
39	0x11	17
40	0x65	101
41	0x86	-122
42	0xe6	-26
43	0xaf	-81
44	0x7f	127
45	0xaf	-81
46	0xd7	-41
47	0xb3	-77
48	0xa8	-88
49	0x7f	127
50	0x02	2
51	0xfe	-2
52	0x7f	127
53	0xc2	-62
54	0x5b	91
55	0x45	69
56	0xe1	-31
57	0xfe	-2
58	0xc1	-63
59	0x12	18
60	0xee	-18
61	0x49	73
62	0x81	-127
63	0x3c	60
64	0xea	-22
65	0x9c	-100
66	0xa8	-88
67	0x7f	127
68	0x25	37
69	0xf9	-7
70	0xf9	-7
71	0x20	32
72	0xae	-82
73	0x90	-112
74	0x0c	12
75	0x7f	127
76	0x5a	90
77	0xfe	-2
78	0xba	-70
79	0x03	3
80	0x6b	107
81	0xb3	-77
82	0xdc	-36
83	0x82	-126
84	0x7f	127
85	0x05	5
86	0x27	39
87	0x60	96
88	0xc4	-60
89	0x81	-127
90	0xd4	-44
91	0x46	70
92	0x9b	-101
93	0x2c	44
94	0x51	81
95	0x04	4
96	0xa6	-90
97	0x22	34
98	0x46	70
99	0x3b	59
100	0x81	-127
101	0xf6	-10
102	0xda	-38
103	0x52	82
104	0x78	120
105	0x10	16
106	0x43	67
107	0x7f	127
108	0x46	70
109	0x6b	107
110	0x04	4
111	0x26	38
112	0xf1	-15
113	0xf6	-10
114	0x21	33
115	0xb7	-73
116	0x7f	127
117	0x13	19
118	0x20	32
119	0x15	21
120	0xeb	-21
121	0xfc	-4
122	0x7c	124
123	0x09	9
124	0x89	-119
125	0x81	-127
126	0x9a	-102
127	0x56	86
128	0x3b	59
129	0xe9	-23
130	0x81	-127
131	0x46	70
132	0x0d	13
133	0x7e	126
134	0x8a	-118
135	0x26	38
136	0x81	-127
137	0xab	-85
138	0xff	-1
139	0xa8	-88
140	0xa1	-95
141	0x4b	75
142	0xec	-20
143	0x98	-104
144	0xf7	-9
145	0x1b	27
146	0xbb	-69
147	0x2f	47
148	0xfc	-4
149	0xf1	-15
150	0x81	-127
151	0x0b	11
152	0x20	32
153	0x38	56
154	0x27	39
155	0x20	32
156	0x7f	127
157	0x05	5
158	0xe9	-23
159	0x98	-104
160	0x16	22
161	0x33	51
162	0xc5	-59
163	0x0e	14
164	0xb2	-78
165	0x2b	43
166	0x81	-127
167	0x41	65
168	0xf8	-8
169	0xd0	-48
170	0x2a	42
171	0xda	-38
172	0xad	-83
173	0x13	19
174	0x7f	127
175	0x47	71
176	0x21	33
177	0x13	19
178	0xd1	-47
179	0x7f	127
180	0xce	-50
181	0xca	-54
182	0x57	87
183	0x0c	12
184	0x21	33
185	0x07	7
186	0xc0	-64
187	0x4f	79
188	0x81	-127
189	0x40	64
190	0x5d	93
191	0x1b	27
192	0xaf	-81
193	0x22	34
194	0x84	-124
195	0x7f	127
196	0xdb	-37
197	0xbe	-66
198	0x06	6
199	0xe3	-29
200	0x2a	42
201	0x23	35
202	0xae	-82
203	0x7f	127
204	0x4b	75
205	0xe7	-25
206	0x61	97
207	0x4c	76
208	0x2f	47
209	0x00	0
210	0xc7	-57
211	0xc5	-59
212	0x10	16
213	0x62	98
214	0x81	-127
215	0x5e	94
216	0xd7	-41
217	0xca	-54
218	0x7f	127
219	0x2f	47
220	0xaa	-86
221	0xe7	-25
222	0x55	85
223	0x17	23
224	0x7f	127
225	0x31	49
226	0x70	112
227	0xc9	-55
228	0x0a	10
229	0x34	52
230	0xe2	-30
231	0xa7	-89
232	0xea	-22
233	0x17	23
234	0x7c	124
235	0xf6	-10
236	0x7f	127
237	0x99	-103
238	0x1f	31
239	0x4c	76
240	0x9a	-102
241	0x74	116
242	0x27	39
243	0x21	33
244	0x63	99
245	0x40	64
246	0x81	-127
247	0x0d	13
248	0x30	48
249	0x26	38
250	0x81	-127
251	0xbc	-68
252	0xe5	-27
253	0x50	80
254	0x73	115
255	0x3e	62

model/conv2d_18/Conv2D i1 [16, 1, 1, 48]
0	0xf0	-16
1	0xde	-34
2	0x62	98
3	0x0e	14
4	0xfc	-4
5	0xed	-19
6	0x12	18
7	0x03	3
8	0xff	-1
9	0xe3	-29
10	0x0d	13
11	0x33	51
12	0x34	52
13	0xe5	-27
14	0xf0	-16
15	0x09	9
16	0x08	8
17	0x16	22
18	0xf6	-10
19	0x0b	11
20	0x04	4
21	0xfb	-5
22	0xe9	-23
23	0x2a	42
24	0x54	84
25	0xed	-19
26	0xff	-1
27	0xf0	-16
28	0xe9	-23
29	0x20	32
30	0xfb	-5
31	0x1c	28
32	0x14	20
33	0xf4	-12
34	0x40	64
35	0x25	37
36	0x47	71
37	0x7f	127
38	0x4f	79
39	0xef	-17
40	0x35	53
41	0x1a	26
42	0xe8	-24
43	0xf3	-13
44	0x41	65
45	0x61	97
46	0x51	81
47	0x09	9
48	0x1f	31
49	0x15	21
50	0xa7	-89
51	0xd8	-40
52	0xdd	-35
53	0xc8	-56
54	0xeb	-21
55	0x44	68
56	0xed	-19
57	0xc4	-60
58	0xc4	-60
59	0xd6	-42
60	0xf7	-9
61	0xf4	-12
62	0xdd	-35
63	0xf2	-14
64	0xc5	-59
65	0xcc	-52
66	0xc6	-58
67	0x41	65
68	0x1e	30
69	0x0f	15
70	0xed	-19
71	0xee	-18
72	0xd7	-41
73	0xd7	-41
74	0xe8	-24
75	0x3f	63
76	0x54	84
77	0xda	-38
78	0x00	0
79	0x16	22
80	0x1a	26
81	0xc8	-56
82	0x24	36
83	0x7f	127
84	0xa8	-88
85	0x62	98
86	0xf7	-9
87	0x8b	-117
88	0x28	40
89	0xd5	-43
90	0xe1	-31
91	0x22	34
92	0x14	20
93	0x8e	-114
94	0x43	67
95	0x27	39
96	0x03	3
97	0xed	-19
98	0xde	-34
99	0x1f	31
100	0xfa	-6
101	0x3c	60
102	0xe1	-31
103	0x07	7
104	0x00	0
105	0xbd	-67
106	0xd3	-45
107	0xfb	-5
108	0x31	49
109	0xa8	-88
110	0x29	41
111	0xff	-1
112	0x12	18
113	0xe0	-32
114	0xf9	-7
115	0xe4	-28
116	0x20	32
117	0x0f	15
118	0x0e	14
119	0x18	24
120	0x81	-127
121	0x08	8
122	0x2c	44
123	0x06	6
124	0xe3	-29
125	0xf7	-9
126	0x24	36
127	0x31	49
128	0xf6	-10
129	0x3f	63
130	0x95	-107
131	0x26	38
132	0x1d	29
133	0x32	50
134	0xfd	-3
135	0x2b	43
136	0x11	17
137	0x36	54
138	0xef	-17
139	0x25	37
140	0xf2	-14
141	0xf8	-8
142	0x3d	61
143	0xd5	-43
144	0x39	57
145	0xcb	-53
146	0x7f	127
147	0x0b	11
148	0x16	22
149	0x35	53
150	0xbe	-66
151	0xc4	-60
152	0xcb	-53
153	0x1e	30
154	0xb9	-71
155	0xeb	-21
156	0xe4	-28
157	0xbd	-67
158	0x30	48
159	0xd2	-46
160	0xe4	-28
161	0x4f	79
162	0xf5	-11
163	0x3d	61
164	0x27	39
165	0xe8	-24
166	0xdb	-37
167	0xe1	-31
168	0xac	-84
169	0xd1	-47
170	0xef	-17
171	0xef	-17
172	0x17	23
173	0xe9	-23
174	0xe5	-27
175	0x09	9
176	0xaf	-81
177	0xb3	-77
178	0xc2	-62
179	0x27	39
180	0x5b	91
181	0xf6	-10
182	0x1b	27
183	0xed	-19
184	0xd8	-40
185	0xe5	-27
186	0xd5	-43
187	0xde	-34
188	0xab	-85
189	0xed	-19
190	0xf4	-12
191	0xaf	-81
192	0xc6	-58
193	0xea	-22
194	0x81	-127
195	0xd3	-45
196	0xd3	-45
197	0xc8	-56
198	0xff	-1
199	0xcc	-52
200	0xfd	-3
201	0x07	7
202	0xf5	-11
203	0x52	82
204	0xe0	-32
205	0xee	-18
206	0xe9	-23
207	0xce	-50
208	0xbd	-67
209	0xf1	-15
210	0xdf	-33
211	0x01	1
212	0x3b	59
213	0xba	-70
214	0xed	-19
215	0x2f	47
216	0x1c	28
217	0x51	81
218	0xd3	-45
219	0xe8	-24
220	0xc6	-58
221	0x05	5
222	0x0b	11
223	0x9d	-99
224	0xc9	-55
225	0x20	32
226	0xfb	-5
227	0x1a	26
228	0x33	51
229	0x30	48
230	0x52	82
231	0xf4	-12
232	0xd7	-41
233	0x05	5
234	0x23	35
235	0x2c	44
236	0x0e	14
237	0x1b	27
238	0xe0	-32
239	0x33	51
240	0x9c	-100
241	0x3a	58
242	0xf5	-11
243	0x62	98
244	0x30	48
245	0xaf	-81
246	0x0f	15
247	0x32	50
248	0x0c	12
249	0x9a	-102
250	0xef	-17
251	0xc1	-63
252	0x9c	-100
253	0x24	36
254	0x21	33
255	0xfc	-4

model/conv2d_19/Conv2D i1 [96, 1, 1, 16]
0	0xf3	-13
1	0xa5	-91
2	0xac	-84
3	0x04	4
4	0x29	41
5	0x1a	26
6	0xd6	-42
7	0xbc	-68
8	0x19	25
9	0x0a	10
10	0x1e	30
11	0x81	-127
12	0xf6	-10
13	0xf4	-12
14	0x05	5
15	0xf4	-12
16	0x3a	58
17	0x6f	111
18	0xf5	-11
19	0xa6	-90
20	0x18	24
21	0x41	65
22	0x4f	79
23	0x29	41
24	0x50	80
25	0x5f	95
26	0x76	118
27	0x04	4
28	0xf7	-9
29	0xd7	-41
30	0x16	22
31	0x7f	127
32	0x51	81
33	0x7f	127
34	0x52	82
35	0xbe	-66
36	0xdb	-37
37	0xcc	-52
38	0xb5	-75
39	0x74	116
40	0xea	-22
41	0x3c	60
42	0x53	83
43	0x37	55
44	0xd2	-46
45	0x40	64
46	0x31	49
47	0x5f	95
48	0x03	3
49	0x21	33
50	0x2e	46
51	0xea	-22
52	0xd9	-39
53	0x20	32
54	0x81	-127
55	0x2a	42
56	0x04	4
57	0xb6	-74
58	0xfc	-4
59	0x09	9
60	0x54	84
61	0xf2	-14
62	0xda	-38
63	0xac	-84
64	0xca	-54
65	0x09	9
66	0x81	-127
67	0x92	-110
68	0xb9	-71
69	0x16	22
70	0xc2	-62
71	0xfc	-4
72	0x07	7
73	0x95	-107
74	0x0f	15
75	0x60	96
76	0x25	37
77	0x0d	13
78	0xfa	-6
79	0x32	50
80	0x81	-127
81	0xe1	-31
82	0xbe	-66
83	0x49	73
84	0x16	22
85	0xef	-17
86	0xf2	-14
87	0xe1	-31
88	0x31	49
89	0x21	33
90	0xe4	-28
91	0xd5	-43
92	0x3e	62
93	0xde	-34
94	0xec	-20
95	0x03	3
96	0x69	105
97	0xc4	-60
98	0x81	-127
99	0xa6	-90
100	0x3c	60
101	0x10	16
102	0x56	86
103	0x75	117
104	0xb0	-80
105	0x9e	-98
106	0x3e	62
107	0xeb	-21
108	0xc4	-60
109	0xaf	-81
110	0x48	72
111	0x56	86
112	0xe3	-29
113	0x14	20
114	0xd0	-48
115	0x0b	11
116	0x81	-127
117	0xd4	-44
118	0x04	4
119	0x01	1
120	0x2c	44
121	0xfa	-6
122	0xdf	-33
123	0xdf	-33
124	0x30	48
125	0x72	114
126	0xd8	-40
127	0xee	-18
128	0x7d	125
129	0x01	1
130	0xca	-54
131	0x87	-121
132	0x17	23
133	0x02	2
134	0x32	50
135	0x22	34
136	0x7f	127
137	0x00	0
138	0x6a	106
139	0x0d	13
140	0xd6	-42
141	0xdc	-36
142	0x16	22
143	0x6b	107
144	0xed	-19
145	0x5e	94
146	0x41	65
147	0x0c	12
148	0x03	3
149	0xe2	-30
150	0x2a	42
151	0x0e	14
152	0x25	37
153	0xc2	-62
154	0x81	-127
155	0xcf	-49
156	0xfd	-3
157	0xc7	-57
158	0xec	-20
159	0xfd	-3
160	0xeb	-21
161	0x34	52
162	0xda	-38
163	0xaa	-86
164	0xce	-50
165	0x24	36
166	0x47	71
167	0x05	5
168	0xe1	-31
169	0x08	8
170	0x45	69
171	0x84	-124
172	0x89	-119
173	0x2a	42
174	0x81	-127
175	0x95	-107
176	0x0e	14
177	0xf7	-9
178	0x1d	29
179	0xfe	-2
180	0x94	-108
181	0xf7	-9
182	0xa4	-92
183	0x7f	127
184	0x15	21
185	0x2c	44
186	0xfb	-5
187	0x51	81
188	0x61	97
189	0xf9	-7
190	0xf1	-15
191	0x1f	31
192	0x4a	74
193	0x22	34
194	0xfb	-5
195	0xad	-83
196	0x05	5
197	0x1e	30
198	0x44	68
199	0xa5	-91
200	0xd7	-41
201	0xb8	-72
202	0x16	22
203	0xde	-34
204	0x34	52
205	0x81	-127
206	0xf4	-12
207	0x60	96
208	0xce	-50
209	0xd3	-45
210	0xd5	-43
211	0x2b	43
212	0xb7	-73
213	0xe8	-24
214	0xe1	-31
215	0x21	33
216	0xf5	-11
217	0x0b	11
218	0x7f	127
219	0xe8	-24
220	0x2c	44
221	0xa1	-95
222	0x58	88
223	0xc2	-62
224	0xe6	-26
225	0xe9	-23
226	0x81	-127
227	0x17	23
228	0x10	16
229	0xd3	-45
230	0x01	1
231	0x2f	47
232	0x3c	60
233	0xed	-19
234	0xaa	-86
235	0xf4	-12
236	0xfa	-6
237	0x24	36
238	0xbf	-65
239	0xdd	-35
240	0x0a	10
241	0xb8	-72
242	0xba	-70
243	0xc4	-60
244	0x10	16
245	0x7f	127
246	0xe5	-27
247	0x14	20
248	0xb8	-72
249	0x3e	62
250	0x1b	27
251	0xdb	-37
252	0xb3	-77
253	0xda	-38
254	0x51	81
255	0xbd	-67

model/conv2d_20/Conv2D i1 [16, 1, 1, 96]
0	0xeb	-21
1	0x3f	63
2	0xb8	-72
3	0xe6	-26
4	0xd7	-41
5	0x50	80
6	0xeb	-21
7	0x07	7
8	0xee	-18
9	0x06	6
10	0x18	24
11	0x48	72
12	0xcb	-53
13	0x9d	-99
14	0x40	64
15	0x1f	31
16	0xbe	-66
17	0xdf	-33
18	0x0c	12
19	0xf4	-12
20	0x45	69
21	0x5a	90
22	0x2d	45
23	0x4b	75
24	0x06	6
25	0x81	-127
26	0x63	99
27	0xcc	-52
28	0x07	7
29	0x08	8
30	0x9d	-99
31	0x39	57
32	0x00	0
33	0x30	48
34	0xcd	-51
35	0xc5	-59
36	0x01	1
37	0x02	2
38	0x70	112
39	0xe4	-28
40	0x30	48
41	0xd2	-46
42	0x1f	31
43	0xb7	-73
44	0x10	16
45	0x2a	42
46	0x53	83
47	0xf3	-13
48	0x03	3
49	0xff	-1
50	0xae	-82
51	0x5b	91
52	0x10	16
53	0x24	36
54	0xed	-19
55	0x9e	-98
56	0x3d	61
57	0x04	4
58	0xc5	-59
59	0x13	19
60	0x0d	13
61	0xea	-22
62	0xa5	-91
63	0xab	-85
64	0x17	23
65	0xe3	-29
66	0x15	21
67	0xf4	-12
68	0x3e	62
69	0x62	98
70	0xdb	-37
71	0xf7	-9
72	0xf7	-9
73	0x03	3
74	0x16	22
75	0x0a	10
76	0x3d	61
77	0xea	-22
78	0xb2	-78
79	0xc9	-55
80	0x02	2
81	0x17	23
82	0x5f	95
83	0x14	20
84	0x1a	26
85	0xfd	-3
86	0xea	-22
87	0xfa	-6
88	0x28	40
89	0xc6	-58
90	0x28	40
91	0x38	56
92	0xc9	-55
93	0xcb	-53
94	0x52	82
95	0xf4	-12
96	0x10	16
97	0xfd	-3
98	0xed	-19
99	0x03	3
100	0xe9	-23
101	0xf1	-15
102	0x0b	11
103	0xeb	-21
104	0xc5	-59
105	0xe4	-28
106	0x25	37
107	0xf4	-12
108	0x1f	31
109	0x1a	26
110	0xf0	-16
111	0x69	105
112	0xe2	-30
113	0x25	37
114	0xe0	-32
115	0xfd	-3
116	0x34	52
117	0x2a	42
118	0xd6	-42
119	0xba	-70
120	0xd2	-46
121	0x05	5
122	0x11	17
123	0xec	-20
124	0x7f	127
125	0x32	50
126	0xfe	-2
127	0x28	40
128	0xc9	-55
129	0xfb	-5
130	0x00	0
131	0x1d	29
132	0x12	18
133	0xd9	-39
134	0x1a	26
135	0x2e	46
136	0xeb	-21
137	0x2a	42
138	0x11	17
139	0xc6	-58
140	0xbe	-66
141	0x17	23
142	0xdf	-33
143	0xb0	-80
144	0xbf	-65
145	0x30	48
146	0xcf	-49
147	0xdf	-33
148	0xd5	-43
149	0xff	-1
150	0xef	-17
151	0xe1	-31
152	0x1e	30
153	0x21	33
154	0xcb	-53
155	0xeb	-21
156	0xd6	-42
157	0x0c	12
158	0xe0	-32
159	0x0b	11
160	0xbb	-69
161	0x0c	12
162	0x21	33
163	0xc3	-61
164	0xe8	-24
165	0x1e	30
166	0x0e	14
167	0xf4	-12
168	0xd2	-46
169	0xf7	-9
170	0xe2	-30
171	0xe7	-25
172	0x26	38
173	0x00	0
174	0xf1	-15
175	0x19	25
176	0xfd	-3
177	0x2e	46
178	0x18	24
179	0x18	24
180	0xd8	-40
181	0xfb	-5
182	0x13	19
183	0xda	-38
184	0xf9	-7
185	0xec	-20
186	0x10	16
187	0x21	33
188	0xe9	-23
189	0xf9	-7
190	0x2a	42
191	0xea	-22
192	0xad	-83
193	0x4e	78
194	0x2c	44
195	0x3b	59
196	0x9b	-101
197	0x55	85
198	0xde	-34
199	0xeb	-21
200	0xc2	-62
201	0xb9	-71
202	0xb9	-71
203	0x4f	79
204	0xef	-17
205	0xc5	-59
206	0xfd	-3
207	0x74	116
208	0x29	41
209	0x05	5
210	0x9e	-98
211	0xef	-17
212	0x00	0
213	0x41	65
214	0xe5	-27
215	0x2d	45
216	0x03	3
217	0x50	80
218	0xd7	-41
219	0xf9	-7
220	0xce	-50
221	0xc3	-61
222	0xfc	-4
223	0x4c	76
224	0x4c	76
225	0x00	0
226	0x36	54
227	0xf8	-8
228	0x2b	43
229	0x9c	-100
230	0xf8	-8
231	0x2d	45
232	0x44	68
233	0x2e	46
234	0x0d	13
235	0x24	36
236	0x01	1
237	0xde	-34
238	0xe3	-29
239	0xce	-50
240	0x18	24
241	0x81	-127
242	0xc7	-57
243	0x3c	60
244	0xb4	-76
245	0x27	39
246	0xe6	-26
247	0xab	-85
248	0x41	65
249	0xf6	-10
250	0x1c	28
251	0x53	83
252	0x21	33
253	0x03	3
254	0xeb	-21
255	0xd6	-42
